{"format": "graph-model", "generatedBy": "2.5.0", "convertedBy": "TensorFlow.js Converter v3.11.0", "signature": {"inputs": {"input_1": {"name": "input_1:0", "dtype": "DT_FLOAT", "tensorShape": {"dim": [{"size": "-1"}, {"size": "320"}, {"size": "320"}, {"size": "3"}]}}}, "outputs": {"output_3": {"name": "Identity_2:0", "dtype": "DT_FLOAT", "tensorShape": {"dim": [{"size": "-1"}, {"size": "10"}, {"size": "10"}, {"size": "128"}]}}, "output_5": {"name": "Identity_4:0", "dtype": "DT_FLOAT", "tensorShape": {"dim": [{"size": "-1"}, {"size": "3"}, {"size": "3"}, {"size": "128"}]}}, "output_4": {"name": "Identity_3:0", "dtype": "DT_FLOAT", "tensorShape": {"dim": [{"size": "-1"}, {"size": "5"}, {"size": "5"}, {"size": "128"}]}}, "output_1": {"name": "Identity:0", "dtype": "DT_FLOAT", "tensorShape": {"dim": [{"size": "-1"}, {"size": "40"}, {"size": "40"}, {"size": "128"}]}}, "output_2": {"name": "Identity_1:0", "dtype": "DT_FLOAT", "tensorShape": {"dim": [{"size": "-1"}, {"size": "20"}, {"size": "20"}, {"size": "128"}]}}}}, "modelTopology": {"node": [{"name": "StatefulPartitionedCall/ssd_mobile_net_v2fpn_keras_feature_extractor/FeatureMaps/top_down/nearest_neighbor_upsampling/nearest_neighbor_upsampling_1/strided_slice/stack", "op": "Const", "attr": {"dtype": {"type": "DT_INT32"}, "value": {"tensor": {"dtype": "DT_INT32", "tensorShape": {"dim": [{"size": "1"}]}}}}}, {"name": "StatefulPartitionedCall/ssd_mobile_net_v2fpn_keras_feature_extractor/FeatureMaps/top_down/nearest_neighbor_upsampling/nearest_neighbor_upsampling_1/strided_slice/stack_1", "op": "Const", "attr": {"value": {"tensor": {"dtype": "DT_INT32", "tensorShape": {"dim": [{"size": "1"}]}}}, "dtype": {"type": "DT_INT32"}}}, {"name": "StatefulPartitionedCall/ssd_mobile_net_v2fpn_keras_feature_extractor/FeatureMaps/top_down/nearest_neighbor_upsampling/nearest_neighbor_upsampling_1/strided_slice/stack_2", "op": "Const", "attr": {"dtype": {"type": "DT_INT32"}, "value": {"tensor": {"dtype": "DT_INT32", "tensorShape": {"dim": [{"size": "1"}]}}}}}, {"name": "StatefulPartitionedCall/ssd_mobile_net_v2fpn_keras_feature_extractor/FeatureMaps/top_down/nearest_neighbor_upsampling/nearest_neighbor_upsampling_1/Reshape/shape/1", "op": "Const", "attr": {"dtype": {"type": "DT_INT32"}, "value": {"tensor": {"dtype": "DT_INT32", "tensorShape": {}}}}}, {"name": "StatefulPartitionedCall/ssd_mobile_net_v2fpn_keras_feature_extractor/FeatureMaps/top_down/nearest_neighbor_upsampling/nearest_neighbor_upsampling_1/Reshape/shape/2", "op": "Const", "attr": {"dtype": {"type": "DT_INT32"}, "value": {"tensor": {"dtype": "DT_INT32", "tensorShape": {}}}}}, {"name": "StatefulPartitionedCall/ssd_mobile_net_v2fpn_keras_feature_extractor/FeatureMaps/top_down/nearest_neighbor_upsampling/nearest_neighbor_upsampling_1/Reshape/shape/3", "op": "Const", "attr": {"value": {"tensor": {"dtype": "DT_INT32", "tensorShape": {}}}, "dtype": {"type": "DT_INT32"}}}, {"name": "StatefulPartitionedCall/ssd_mobile_net_v2fpn_keras_feature_extractor/FeatureMaps/top_down/projection_1/Conv2D/ReadVariableOp", "op": "Const", "attr": {"value": {"tensor": {"dtype": "DT_FLOAT", "tensorShape": {"dim": [{"size": "1"}, {"size": "1"}, {"size": "32"}, {"size": "128"}]}}}, "dtype": {"type": "DT_FLOAT"}}}, {"name": "StatefulPartitionedCall/ssd_mobile_net_v2fpn_keras_feature_extractor/FeatureMaps/top_down/projection_1/BiasAdd/ReadVariableOp", "op": "Const", "attr": {"dtype": {"type": "DT_FLOAT"}, "value": {"tensor": {"dtype": "DT_FLOAT", "tensorShape": {"dim": [{"size": "128"}]}}}}}, {"name": "StatefulPartitionedCall/ssd_mobile_net_v2fpn_keras_feature_extractor/FeatureMaps/top_down/smoothing_1_depthwise_conv/separable_conv2d/ReadVariableOp", "op": "Const", "attr": {"dtype": {"type": "DT_FLOAT"}, "value": {"tensor": {"dtype": "DT_FLOAT", "tensorShape": {"dim": [{"size": "3"}, {"size": "3"}, {"size": "128"}, {"size": "1"}]}}}}}, {"name": "StatefulPartitionedCall/ssd_mobile_net_v2fpn_keras_feature_extractor/FeatureMaps/top_down/nearest_neighbor_upsampling/nearest_neighbor_upsampling/strided_slice/stack", "op": "Const", "attr": {"value": {"tensor": {"dtype": "DT_INT32", "tensorShape": {"dim": [{"size": "1"}]}}}, "dtype": {"type": "DT_INT32"}}}, {"name": "StatefulPartitionedCall/ssd_mobile_net_v2fpn_keras_feature_extractor/FeatureMaps/top_down/nearest_neighbor_upsampling/nearest_neighbor_upsampling/strided_slice/stack_1", "op": "Const", "attr": {"dtype": {"type": "DT_INT32"}, "value": {"tensor": {"dtype": "DT_INT32", "tensorShape": {"dim": [{"size": "1"}]}}}}}, {"name": "StatefulPartitionedCall/ssd_mobile_net_v2fpn_keras_feature_extractor/FeatureMaps/top_down/nearest_neighbor_upsampling/nearest_neighbor_upsampling/strided_slice/stack_2", "op": "Const", "attr": {"dtype": {"type": "DT_INT32"}, "value": {"tensor": {"dtype": "DT_INT32", "tensorShape": {"dim": [{"size": "1"}]}}}}}, {"name": "StatefulPartitionedCall/ssd_mobile_net_v2fpn_keras_feature_extractor/FeatureMaps/top_down/nearest_neighbor_upsampling/nearest_neighbor_upsampling/Reshape/shape/1", "op": "Const", "attr": {"value": {"tensor": {"dtype": "DT_INT32", "tensorShape": {}}}, "dtype": {"type": "DT_INT32"}}}, {"name": "StatefulPartitionedCall/ssd_mobile_net_v2fpn_keras_feature_extractor/FeatureMaps/top_down/nearest_neighbor_upsampling/nearest_neighbor_upsampling/Reshape/shape/2", "op": "Const", "attr": {"dtype": {"type": "DT_INT32"}, "value": {"tensor": {"dtype": "DT_INT32", "tensorShape": {}}}}}, {"name": "StatefulPartitionedCall/ssd_mobile_net_v2fpn_keras_feature_extractor/FeatureMaps/top_down/nearest_neighbor_upsampling/nearest_neighbor_upsampling/Reshape/shape/3", "op": "Const", "attr": {"dtype": {"type": "DT_INT32"}, "value": {"tensor": {"dtype": "DT_INT32", "tensorShape": {}}}}}, {"name": "StatefulPartitionedCall/ssd_mobile_net_v2fpn_keras_feature_extractor/FeatureMaps/top_down/projection_2/Conv2D/ReadVariableOp", "op": "Const", "attr": {"value": {"tensor": {"dtype": "DT_FLOAT", "tensorShape": {"dim": [{"size": "1"}, {"size": "1"}, {"size": "96"}, {"size": "128"}]}}}, "dtype": {"type": "DT_FLOAT"}}}, {"name": "StatefulPartitionedCall/ssd_mobile_net_v2fpn_keras_feature_extractor/FeatureMaps/top_down/projection_2/BiasAdd/ReadVariableOp", "op": "Const", "attr": {"dtype": {"type": "DT_FLOAT"}, "value": {"tensor": {"dtype": "DT_FLOAT", "tensorShape": {"dim": [{"size": "128"}]}}}}}, {"name": "StatefulPartitionedCall/ssd_mobile_net_v2fpn_keras_feature_extractor/FeatureMaps/top_down/smoothing_2_depthwise_conv/separable_conv2d/ReadVariableOp", "op": "Const", "attr": {"value": {"tensor": {"dtype": "DT_FLOAT", "tensorShape": {"dim": [{"size": "3"}, {"size": "3"}, {"size": "128"}, {"size": "1"}]}}}, "dtype": {"type": "DT_FLOAT"}}}, {"name": "StatefulPartitionedCall/ssd_mobile_net_v2fpn_keras_feature_extractor/FeatureMaps/top_down/projection_3/Conv2D/ReadVariableOp", "op": "Const", "attr": {"value": {"tensor": {"dtype": "DT_FLOAT", "tensorShape": {"dim": [{"size": "1"}, {"size": "1"}, {"size": "1280"}, {"size": "128"}]}}}, "dtype": {"type": "DT_FLOAT"}}}, {"name": "StatefulPartitionedCall/ssd_mobile_net_v2fpn_keras_feature_extractor/FeatureMaps/top_down/projection_3/BiasAdd/ReadVariableOp", "op": "Const", "attr": {"dtype": {"type": "DT_FLOAT"}, "value": {"tensor": {"dtype": "DT_FLOAT", "tensorShape": {"dim": [{"size": "128"}]}}}}}, {"name": "StatefulPartitionedCall/ssd_mobile_net_v2fpn_keras_feature_extractor/bottom_up_Conv2d_20_depthwise_conv/separable_conv2d/ReadVariableOp", "op": "Const", "attr": {"value": {"tensor": {"dtype": "DT_FLOAT", "tensorShape": {"dim": [{"size": "3"}, {"size": "3"}, {"size": "128"}, {"size": "1"}]}}}, "dtype": {"type": "DT_FLOAT"}}}, {"name": "StatefulPartitionedCall/ssd_mobile_net_v2fpn_keras_feature_extractor/bottom_up_Conv2d_21_depthwise_conv/separable_conv2d/ReadVariableOp", "op": "Const", "attr": {"value": {"tensor": {"dtype": "DT_FLOAT", "tensorShape": {"dim": [{"size": "3"}, {"size": "3"}, {"size": "128"}, {"size": "1"}]}}}, "dtype": {"type": "DT_FLOAT"}}}, {"name": "input_1", "op": "Placeholder", "attr": {"shape": {"shape": {"dim": [{"size": "-1"}, {"size": "320"}, {"size": "320"}, {"size": "3"}]}}, "dtype": {"type": "DT_FLOAT"}}}, {"name": "StatefulPartitionedCall/ssd_mobile_net_v2fpn_keras_feature_extractor/model/Conv1/Conv2D_weights", "op": "Const", "attr": {"value": {"tensor": {"dtype": "DT_FLOAT", "tensorShape": {"dim": [{"size": "3"}, {"size": "3"}, {"size": "3"}, {"size": "32"}]}}}, "dtype": {"type": "DT_FLOAT"}}}, {"name": "StatefulPartitionedCall/ssd_mobile_net_v2fpn_keras_feature_extractor/model/block_16_expand/Conv2D_weights", "op": "Const", "attr": {"dtype": {"type": "DT_FLOAT"}, "value": {"tensor": {"dtype": "DT_FLOAT", "tensorShape": {"dim": [{"size": "1"}, {"size": "1"}, {"size": "160"}, {"size": "960"}]}}}}}, {"name": "StatefulPartitionedCall/ssd_mobile_net_v2fpn_keras_feature_extractor/model/Conv1/Conv2D_bn_offset", "op": "Const", "attr": {"dtype": {"type": "DT_FLOAT"}, "value": {"tensor": {"dtype": "DT_FLOAT", "tensorShape": {"dim": [{"size": "32"}]}}}}}, {"name": "StatefulPartitionedCall/ssd_mobile_net_v2fpn_keras_feature_extractor/model/expanded_conv_depthwise/depthwise_weights", "op": "Const", "attr": {"dtype": {"type": "DT_FLOAT"}, "value": {"tensor": {"dtype": "DT_FLOAT", "tensorShape": {"dim": [{"size": "3"}, {"size": "3"}, {"size": "32"}, {"size": "1"}]}}}}}, {"name": "StatefulPartitionedCall/ssd_mobile_net_v2fpn_keras_feature_extractor/model/expanded_conv_depthwise/depthwise_bn_offset", "op": "Const", "attr": {"value": {"tensor": {"dtype": "DT_FLOAT", "tensorShape": {"dim": [{"size": "32"}]}}}, "dtype": {"type": "DT_FLOAT"}}}, {"name": "StatefulPartitionedCall/ssd_mobile_net_v2fpn_keras_feature_extractor/model/expanded_conv_project/Conv2D_weights", "op": "Const", "attr": {"value": {"tensor": {"dtype": "DT_FLOAT", "tensorShape": {"dim": [{"size": "1"}, {"size": "1"}, {"size": "32"}, {"size": "16"}]}}}, "dtype": {"type": "DT_FLOAT"}}}, {"name": "StatefulPartitionedCall/ssd_mobile_net_v2fpn_keras_feature_extractor/model/block_16_expand/Conv2D_bn_offset", "op": "Const", "attr": {"dtype": {"type": "DT_FLOAT"}, "value": {"tensor": {"dtype": "DT_FLOAT", "tensorShape": {"dim": [{"size": "960"}]}}}}}, {"name": "StatefulPartitionedCall/ssd_mobile_net_v2fpn_keras_feature_extractor/model/expanded_conv_project/Conv2D_bn_offset", "op": "Const", "attr": {"value": {"tensor": {"dtype": "DT_FLOAT", "tensorShape": {"dim": [{"size": "16"}]}}}, "dtype": {"type": "DT_FLOAT"}}}, {"name": "StatefulPartitionedCall/ssd_mobile_net_v2fpn_keras_feature_extractor/model/block_1_expand/Conv2D_weights", "op": "Const", "attr": {"value": {"tensor": {"dtype": "DT_FLOAT", "tensorShape": {"dim": [{"size": "1"}, {"size": "1"}, {"size": "16"}, {"size": "96"}]}}}, "dtype": {"type": "DT_FLOAT"}}}, {"name": "StatefulPartitionedCall/ssd_mobile_net_v2fpn_keras_feature_extractor/model/block_1_expand/Conv2D_bn_offset", "op": "Const", "attr": {"value": {"tensor": {"dtype": "DT_FLOAT", "tensorShape": {"dim": [{"size": "96"}]}}}, "dtype": {"type": "DT_FLOAT"}}}, {"name": "StatefulPartitionedCall/ssd_mobile_net_v2fpn_keras_feature_extractor/model/block_1_depthwise/depthwise_weights", "op": "Const", "attr": {"value": {"tensor": {"dtype": "DT_FLOAT", "tensorShape": {"dim": [{"size": "3"}, {"size": "3"}, {"size": "96"}, {"size": "1"}]}}}, "dtype": {"type": "DT_FLOAT"}}}, {"name": "StatefulPartitionedCall/ssd_mobile_net_v2fpn_keras_feature_extractor/model/block_1_depthwise/depthwise_bn_offset", "op": "Const", "attr": {"value": {"tensor": {"dtype": "DT_FLOAT", "tensorShape": {"dim": [{"size": "96"}]}}}, "dtype": {"type": "DT_FLOAT"}}}, {"name": "StatefulPartitionedCall/ssd_mobile_net_v2fpn_keras_feature_extractor/model/block_1_project/Conv2D_weights", "op": "Const", "attr": {"value": {"tensor": {"dtype": "DT_FLOAT", "tensorShape": {"dim": [{"size": "1"}, {"size": "1"}, {"size": "96"}, {"size": "24"}]}}}, "dtype": {"type": "DT_FLOAT"}}}, {"name": "StatefulPartitionedCall/ssd_mobile_net_v2fpn_keras_feature_extractor/model/block_16_depthwise/depthwise_weights", "op": "Const", "attr": {"dtype": {"type": "DT_FLOAT"}, "value": {"tensor": {"dtype": "DT_FLOAT", "tensorShape": {"dim": [{"size": "3"}, {"size": "3"}, {"size": "960"}, {"size": "1"}]}}}}}, {"name": "StatefulPartitionedCall/ssd_mobile_net_v2fpn_keras_feature_extractor/model/block_1_project/Conv2D_bn_offset", "op": "Const", "attr": {"dtype": {"type": "DT_FLOAT"}, "value": {"tensor": {"dtype": "DT_FLOAT", "tensorShape": {"dim": [{"size": "24"}]}}}}}, {"name": "StatefulPartitionedCall/ssd_mobile_net_v2fpn_keras_feature_extractor/model/block_2_expand/Conv2D_weights", "op": "Const", "attr": {"dtype": {"type": "DT_FLOAT"}, "value": {"tensor": {"dtype": "DT_FLOAT", "tensorShape": {"dim": [{"size": "1"}, {"size": "1"}, {"size": "24"}, {"size": "144"}]}}}}}, {"name": "StatefulPartitionedCall/ssd_mobile_net_v2fpn_keras_feature_extractor/model/block_2_expand/Conv2D_bn_offset", "op": "Const", "attr": {"dtype": {"type": "DT_FLOAT"}, "value": {"tensor": {"dtype": "DT_FLOAT", "tensorShape": {"dim": [{"size": "144"}]}}}}}, {"name": "StatefulPartitionedCall/ssd_mobile_net_v2fpn_keras_feature_extractor/model/block_16_depthwise/depthwise_bn_offset", "op": "Const", "attr": {"value": {"tensor": {"dtype": "DT_FLOAT", "tensorShape": {"dim": [{"size": "960"}]}}}, "dtype": {"type": "DT_FLOAT"}}}, {"name": "StatefulPartitionedCall/ssd_mobile_net_v2fpn_keras_feature_extractor/model/block_2_depthwise/depthwise_weights", "op": "Const", "attr": {"dtype": {"type": "DT_FLOAT"}, "value": {"tensor": {"dtype": "DT_FLOAT", "tensorShape": {"dim": [{"size": "3"}, {"size": "3"}, {"size": "144"}, {"size": "1"}]}}}}}, {"name": "StatefulPartitionedCall/ssd_mobile_net_v2fpn_keras_feature_extractor/model/block_2_depthwise/depthwise_bn_offset", "op": "Const", "attr": {"dtype": {"type": "DT_FLOAT"}, "value": {"tensor": {"dtype": "DT_FLOAT", "tensorShape": {"dim": [{"size": "144"}]}}}}}, {"name": "StatefulPartitionedCall/ssd_mobile_net_v2fpn_keras_feature_extractor/model/block_2_project/Conv2D_weights", "op": "Const", "attr": {"dtype": {"type": "DT_FLOAT"}, "value": {"tensor": {"dtype": "DT_FLOAT", "tensorShape": {"dim": [{"size": "1"}, {"size": "1"}, {"size": "144"}, {"size": "24"}]}}}}}, {"name": "StatefulPartitionedCall/ssd_mobile_net_v2fpn_keras_feature_extractor/model/block_2_project/Conv2D_bn_offset", "op": "Const", "attr": {"value": {"tensor": {"dtype": "DT_FLOAT", "tensorShape": {"dim": [{"size": "24"}]}}}, "dtype": {"type": "DT_FLOAT"}}}, {"name": "StatefulPartitionedCall/ssd_mobile_net_v2fpn_keras_feature_extractor/model/block_3_expand/Conv2D_weights", "op": "Const", "attr": {"value": {"tensor": {"dtype": "DT_FLOAT", "tensorShape": {"dim": [{"size": "1"}, {"size": "1"}, {"size": "24"}, {"size": "144"}]}}}, "dtype": {"type": "DT_FLOAT"}}}, {"name": "StatefulPartitionedCall/ssd_mobile_net_v2fpn_keras_feature_extractor/model/block_3_expand/Conv2D_bn_offset", "op": "Const", "attr": {"value": {"tensor": {"dtype": "DT_FLOAT", "tensorShape": {"dim": [{"size": "144"}]}}}, "dtype": {"type": "DT_FLOAT"}}}, {"name": "StatefulPartitionedCall/ssd_mobile_net_v2fpn_keras_feature_extractor/model/block_16_project/Conv2D_weights", "op": "Const", "attr": {"value": {"tensor": {"dtype": "DT_FLOAT", "tensorShape": {"dim": [{"size": "1"}, {"size": "1"}, {"size": "960"}, {"size": "320"}]}}}, "dtype": {"type": "DT_FLOAT"}}}, {"name": "StatefulPartitionedCall/ssd_mobile_net_v2fpn_keras_feature_extractor/model/block_3_depthwise/depthwise_weights", "op": "Const", "attr": {"value": {"tensor": {"dtype": "DT_FLOAT", "tensorShape": {"dim": [{"size": "3"}, {"size": "3"}, {"size": "144"}, {"size": "1"}]}}}, "dtype": {"type": "DT_FLOAT"}}}, {"name": "StatefulPartitionedCall/ssd_mobile_net_v2fpn_keras_feature_extractor/model/block_3_depthwise/depthwise_bn_offset", "op": "Const", "attr": {"value": {"tensor": {"dtype": "DT_FLOAT", "tensorShape": {"dim": [{"size": "144"}]}}}, "dtype": {"type": "DT_FLOAT"}}}, {"name": "StatefulPartitionedCall/ssd_mobile_net_v2fpn_keras_feature_extractor/model/block_3_project/Conv2D_weights", "op": "Const", "attr": {"value": {"tensor": {"dtype": "DT_FLOAT", "tensorShape": {"dim": [{"size": "1"}, {"size": "1"}, {"size": "144"}, {"size": "32"}]}}}, "dtype": {"type": "DT_FLOAT"}}}, {"name": "StatefulPartitionedCall/ssd_mobile_net_v2fpn_keras_feature_extractor/model/block_3_project/Conv2D_bn_offset", "op": "Const", "attr": {"value": {"tensor": {"dtype": "DT_FLOAT", "tensorShape": {"dim": [{"size": "32"}]}}}, "dtype": {"type": "DT_FLOAT"}}}, {"name": "StatefulPartitionedCall/ssd_mobile_net_v2fpn_keras_feature_extractor/model/block_4_expand/Conv2D_weights", "op": "Const", "attr": {"dtype": {"type": "DT_FLOAT"}, "value": {"tensor": {"dtype": "DT_FLOAT", "tensorShape": {"dim": [{"size": "1"}, {"size": "1"}, {"size": "32"}, {"size": "192"}]}}}}}, {"name": "StatefulPartitionedCall/ssd_mobile_net_v2fpn_keras_feature_extractor/model/block_16_project/Conv2D_bn_offset", "op": "Const", "attr": {"value": {"tensor": {"dtype": "DT_FLOAT", "tensorShape": {"dim": [{"size": "320"}]}}}, "dtype": {"type": "DT_FLOAT"}}}, {"name": "StatefulPartitionedCall/ssd_mobile_net_v2fpn_keras_feature_extractor/model/block_4_expand/Conv2D_bn_offset", "op": "Const", "attr": {"value": {"tensor": {"dtype": "DT_FLOAT", "tensorShape": {"dim": [{"size": "192"}]}}}, "dtype": {"type": "DT_FLOAT"}}}, {"name": "StatefulPartitionedCall/ssd_mobile_net_v2fpn_keras_feature_extractor/model/block_4_depthwise/depthwise_weights", "op": "Const", "attr": {"value": {"tensor": {"dtype": "DT_FLOAT", "tensorShape": {"dim": [{"size": "3"}, {"size": "3"}, {"size": "192"}, {"size": "1"}]}}}, "dtype": {"type": "DT_FLOAT"}}}, {"name": "StatefulPartitionedCall/ssd_mobile_net_v2fpn_keras_feature_extractor/model/block_4_depthwise/depthwise_bn_offset", "op": "Const", "attr": {"dtype": {"type": "DT_FLOAT"}, "value": {"tensor": {"dtype": "DT_FLOAT", "tensorShape": {"dim": [{"size": "192"}]}}}}}, {"name": "StatefulPartitionedCall/ssd_mobile_net_v2fpn_keras_feature_extractor/model/block_4_project/Conv2D_weights", "op": "Const", "attr": {"value": {"tensor": {"dtype": "DT_FLOAT", "tensorShape": {"dim": [{"size": "1"}, {"size": "1"}, {"size": "192"}, {"size": "32"}]}}}, "dtype": {"type": "DT_FLOAT"}}}, {"name": "StatefulPartitionedCall/ssd_mobile_net_v2fpn_keras_feature_extractor/model/Conv_1/Conv2D_weights", "op": "Const", "attr": {"value": {"tensor": {"dtype": "DT_FLOAT", "tensorShape": {"dim": [{"size": "1"}, {"size": "1"}, {"size": "320"}, {"size": "1280"}]}}}, "dtype": {"type": "DT_FLOAT"}}}, {"name": "StatefulPartitionedCall/ssd_mobile_net_v2fpn_keras_feature_extractor/model/block_4_project/Conv2D_bn_offset", "op": "Const", "attr": {"value": {"tensor": {"dtype": "DT_FLOAT", "tensorShape": {"dim": [{"size": "32"}]}}}, "dtype": {"type": "DT_FLOAT"}}}, {"name": "StatefulPartitionedCall/ssd_mobile_net_v2fpn_keras_feature_extractor/model/block_5_expand/Conv2D_weights", "op": "Const", "attr": {"dtype": {"type": "DT_FLOAT"}, "value": {"tensor": {"dtype": "DT_FLOAT", "tensorShape": {"dim": [{"size": "1"}, {"size": "1"}, {"size": "32"}, {"size": "192"}]}}}}}, {"name": "StatefulPartitionedCall/ssd_mobile_net_v2fpn_keras_feature_extractor/model/block_5_expand/Conv2D_bn_offset", "op": "Const", "attr": {"value": {"tensor": {"dtype": "DT_FLOAT", "tensorShape": {"dim": [{"size": "192"}]}}}, "dtype": {"type": "DT_FLOAT"}}}, {"name": "StatefulPartitionedCall/ssd_mobile_net_v2fpn_keras_feature_extractor/model/Conv_1/Conv2D_bn_offset", "op": "Const", "attr": {"dtype": {"type": "DT_FLOAT"}, "value": {"tensor": {"dtype": "DT_FLOAT", "tensorShape": {"dim": [{"size": "1280"}]}}}}}, {"name": "StatefulPartitionedCall/ssd_mobile_net_v2fpn_keras_feature_extractor/model/block_5_depthwise/depthwise_weights", "op": "Const", "attr": {"value": {"tensor": {"dtype": "DT_FLOAT", "tensorShape": {"dim": [{"size": "3"}, {"size": "3"}, {"size": "192"}, {"size": "1"}]}}}, "dtype": {"type": "DT_FLOAT"}}}, {"name": "StatefulPartitionedCall/ssd_mobile_net_v2fpn_keras_feature_extractor/model/block_5_depthwise/depthwise_bn_offset", "op": "Const", "attr": {"dtype": {"type": "DT_FLOAT"}, "value": {"tensor": {"dtype": "DT_FLOAT", "tensorShape": {"dim": [{"size": "192"}]}}}}}, {"name": "StatefulPartitionedCall/ssd_mobile_net_v2fpn_keras_feature_extractor/model/block_5_project/Conv2D_weights", "op": "Const", "attr": {"dtype": {"type": "DT_FLOAT"}, "value": {"tensor": {"dtype": "DT_FLOAT", "tensorShape": {"dim": [{"size": "1"}, {"size": "1"}, {"size": "192"}, {"size": "32"}]}}}}}, {"name": "StatefulPartitionedCall/ssd_mobile_net_v2fpn_keras_feature_extractor/model/block_5_project/Conv2D_bn_offset", "op": "Const", "attr": {"value": {"tensor": {"dtype": "DT_FLOAT", "tensorShape": {"dim": [{"size": "32"}]}}}, "dtype": {"type": "DT_FLOAT"}}}, {"name": "StatefulPartitionedCall/ssd_mobile_net_v2fpn_keras_feature_extractor/model/block_6_expand/Conv2D_weights", "op": "Const", "attr": {"value": {"tensor": {"dtype": "DT_FLOAT", "tensorShape": {"dim": [{"size": "1"}, {"size": "1"}, {"size": "32"}, {"size": "192"}]}}}, "dtype": {"type": "DT_FLOAT"}}}, {"name": "StatefulPartitionedCall/ssd_mobile_net_v2fpn_keras_feature_extractor/model/block_6_expand/Conv2D_bn_offset", "op": "Const", "attr": {"dtype": {"type": "DT_FLOAT"}, "value": {"tensor": {"dtype": "DT_FLOAT", "tensorShape": {"dim": [{"size": "192"}]}}}}}, {"name": "StatefulPartitionedCall/ssd_mobile_net_v2fpn_keras_feature_extractor/model/block_6_depthwise/depthwise_weights", "op": "Const", "attr": {"dtype": {"type": "DT_FLOAT"}, "value": {"tensor": {"dtype": "DT_FLOAT", "tensorShape": {"dim": [{"size": "3"}, {"size": "3"}, {"size": "192"}, {"size": "1"}]}}}}}, {"name": "StatefulPartitionedCall/ssd_mobile_net_v2fpn_keras_feature_extractor/model/block_6_depthwise/depthwise_bn_offset", "op": "Const", "attr": {"dtype": {"type": "DT_FLOAT"}, "value": {"tensor": {"dtype": "DT_FLOAT", "tensorShape": {"dim": [{"size": "192"}]}}}}}, {"name": "StatefulPartitionedCall/ssd_mobile_net_v2fpn_keras_feature_extractor/model/block_6_project/Conv2D_weights", "op": "Const", "attr": {"dtype": {"type": "DT_FLOAT"}, "value": {"tensor": {"dtype": "DT_FLOAT", "tensorShape": {"dim": [{"size": "1"}, {"size": "1"}, {"size": "192"}, {"size": "64"}]}}}}}, {"name": "StatefulPartitionedCall/ssd_mobile_net_v2fpn_keras_feature_extractor/model/block_6_project/Conv2D_bn_offset", "op": "Const", "attr": {"value": {"tensor": {"dtype": "DT_FLOAT", "tensorShape": {"dim": [{"size": "64"}]}}}, "dtype": {"type": "DT_FLOAT"}}}, {"name": "StatefulPartitionedCall/ssd_mobile_net_v2fpn_keras_feature_extractor/model/block_7_expand/Conv2D_weights", "op": "Const", "attr": {"value": {"tensor": {"dtype": "DT_FLOAT", "tensorShape": {"dim": [{"size": "1"}, {"size": "1"}, {"size": "64"}, {"size": "384"}]}}}, "dtype": {"type": "DT_FLOAT"}}}, {"name": "StatefulPartitionedCall/ssd_mobile_net_v2fpn_keras_feature_extractor/model/block_7_expand/Conv2D_bn_offset", "op": "Const", "attr": {"value": {"tensor": {"dtype": "DT_FLOAT", "tensorShape": {"dim": [{"size": "384"}]}}}, "dtype": {"type": "DT_FLOAT"}}}, {"name": "StatefulPartitionedCall/ssd_mobile_net_v2fpn_keras_feature_extractor/model/block_7_depthwise/depthwise_weights", "op": "Const", "attr": {"value": {"tensor": {"dtype": "DT_FLOAT", "tensorShape": {"dim": [{"size": "3"}, {"size": "3"}, {"size": "384"}, {"size": "1"}]}}}, "dtype": {"type": "DT_FLOAT"}}}, {"name": "StatefulPartitionedCall/ssd_mobile_net_v2fpn_keras_feature_extractor/model/block_7_depthwise/depthwise_bn_offset", "op": "Const", "attr": {"value": {"tensor": {"dtype": "DT_FLOAT", "tensorShape": {"dim": [{"size": "384"}]}}}, "dtype": {"type": "DT_FLOAT"}}}, {"name": "StatefulPartitionedCall/ssd_mobile_net_v2fpn_keras_feature_extractor/model/block_7_project/Conv2D_weights", "op": "Const", "attr": {"dtype": {"type": "DT_FLOAT"}, "value": {"tensor": {"dtype": "DT_FLOAT", "tensorShape": {"dim": [{"size": "1"}, {"size": "1"}, {"size": "384"}, {"size": "64"}]}}}}}, {"name": "StatefulPartitionedCall/ssd_mobile_net_v2fpn_keras_feature_extractor/model/block_7_project/Conv2D_bn_offset", "op": "Const", "attr": {"dtype": {"type": "DT_FLOAT"}, "value": {"tensor": {"dtype": "DT_FLOAT", "tensorShape": {"dim": [{"size": "64"}]}}}}}, {"name": "StatefulPartitionedCall/ssd_mobile_net_v2fpn_keras_feature_extractor/model/block_8_expand/Conv2D_weights", "op": "Const", "attr": {"dtype": {"type": "DT_FLOAT"}, "value": {"tensor": {"dtype": "DT_FLOAT", "tensorShape": {"dim": [{"size": "1"}, {"size": "1"}, {"size": "64"}, {"size": "384"}]}}}}}, {"name": "StatefulPartitionedCall/ssd_mobile_net_v2fpn_keras_feature_extractor/model/block_8_expand/Conv2D_bn_offset", "op": "Const", "attr": {"dtype": {"type": "DT_FLOAT"}, "value": {"tensor": {"dtype": "DT_FLOAT", "tensorShape": {"dim": [{"size": "384"}]}}}}}, {"name": "StatefulPartitionedCall/ssd_mobile_net_v2fpn_keras_feature_extractor/model/block_8_depthwise/depthwise_weights", "op": "Const", "attr": {"dtype": {"type": "DT_FLOAT"}, "value": {"tensor": {"dtype": "DT_FLOAT", "tensorShape": {"dim": [{"size": "3"}, {"size": "3"}, {"size": "384"}, {"size": "1"}]}}}}}, {"name": "StatefulPartitionedCall/ssd_mobile_net_v2fpn_keras_feature_extractor/model/block_8_depthwise/depthwise_bn_offset", "op": "Const", "attr": {"value": {"tensor": {"dtype": "DT_FLOAT", "tensorShape": {"dim": [{"size": "384"}]}}}, "dtype": {"type": "DT_FLOAT"}}}, {"name": "StatefulPartitionedCall/ssd_mobile_net_v2fpn_keras_feature_extractor/model/block_8_project/Conv2D_weights", "op": "Const", "attr": {"value": {"tensor": {"dtype": "DT_FLOAT", "tensorShape": {"dim": [{"size": "1"}, {"size": "1"}, {"size": "384"}, {"size": "64"}]}}}, "dtype": {"type": "DT_FLOAT"}}}, {"name": "StatefulPartitionedCall/ssd_mobile_net_v2fpn_keras_feature_extractor/model/block_8_project/Conv2D_bn_offset", "op": "Const", "attr": {"value": {"tensor": {"dtype": "DT_FLOAT", "tensorShape": {"dim": [{"size": "64"}]}}}, "dtype": {"type": "DT_FLOAT"}}}, {"name": "StatefulPartitionedCall/ssd_mobile_net_v2fpn_keras_feature_extractor/model/block_9_expand/Conv2D_weights", "op": "Const", "attr": {"dtype": {"type": "DT_FLOAT"}, "value": {"tensor": {"dtype": "DT_FLOAT", "tensorShape": {"dim": [{"size": "1"}, {"size": "1"}, {"size": "64"}, {"size": "384"}]}}}}}, {"name": "StatefulPartitionedCall/ssd_mobile_net_v2fpn_keras_feature_extractor/model/block_9_expand/Conv2D_bn_offset", "op": "Const", "attr": {"value": {"tensor": {"dtype": "DT_FLOAT", "tensorShape": {"dim": [{"size": "384"}]}}}, "dtype": {"type": "DT_FLOAT"}}}, {"name": "StatefulPartitionedCall/ssd_mobile_net_v2fpn_keras_feature_extractor/model/block_9_depthwise/depthwise_weights", "op": "Const", "attr": {"dtype": {"type": "DT_FLOAT"}, "value": {"tensor": {"dtype": "DT_FLOAT", "tensorShape": {"dim": [{"size": "3"}, {"size": "3"}, {"size": "384"}, {"size": "1"}]}}}}}, {"name": "StatefulPartitionedCall/ssd_mobile_net_v2fpn_keras_feature_extractor/model/block_9_depthwise/depthwise_bn_offset", "op": "Const", "attr": {"value": {"tensor": {"dtype": "DT_FLOAT", "tensorShape": {"dim": [{"size": "384"}]}}}, "dtype": {"type": "DT_FLOAT"}}}, {"name": "StatefulPartitionedCall/ssd_mobile_net_v2fpn_keras_feature_extractor/model/block_9_project/Conv2D_weights", "op": "Const", "attr": {"dtype": {"type": "DT_FLOAT"}, "value": {"tensor": {"dtype": "DT_FLOAT", "tensorShape": {"dim": [{"size": "1"}, {"size": "1"}, {"size": "384"}, {"size": "64"}]}}}}}, {"name": "StatefulPartitionedCall/ssd_mobile_net_v2fpn_keras_feature_extractor/model/block_9_project/Conv2D_bn_offset", "op": "Const", "attr": {"dtype": {"type": "DT_FLOAT"}, "value": {"tensor": {"dtype": "DT_FLOAT", "tensorShape": {"dim": [{"size": "64"}]}}}}}, {"name": "StatefulPartitionedCall/ssd_mobile_net_v2fpn_keras_feature_extractor/model/block_10_expand/Conv2D_weights", "op": "Const", "attr": {"dtype": {"type": "DT_FLOAT"}, "value": {"tensor": {"dtype": "DT_FLOAT", "tensorShape": {"dim": [{"size": "1"}, {"size": "1"}, {"size": "64"}, {"size": "384"}]}}}}}, {"name": "StatefulPartitionedCall/ssd_mobile_net_v2fpn_keras_feature_extractor/bottom_up_Conv2d_20_depthwise_conv/separable_conv2d_weights", "op": "Const", "attr": {"dtype": {"type": "DT_FLOAT"}, "value": {"tensor": {"dtype": "DT_FLOAT", "tensorShape": {"dim": [{"size": "1"}, {"size": "1"}, {"size": "128"}, {"size": "128"}]}}}}}, {"name": "StatefulPartitionedCall/ssd_mobile_net_v2fpn_keras_feature_extractor/model/block_10_expand/Conv2D_bn_offset", "op": "Const", "attr": {"dtype": {"type": "DT_FLOAT"}, "value": {"tensor": {"dtype": "DT_FLOAT", "tensorShape": {"dim": [{"size": "384"}]}}}}}, {"name": "StatefulPartitionedCall/ssd_mobile_net_v2fpn_keras_feature_extractor/model/block_10_depthwise/depthwise_weights", "op": "Const", "attr": {"dtype": {"type": "DT_FLOAT"}, "value": {"tensor": {"dtype": "DT_FLOAT", "tensorShape": {"dim": [{"size": "3"}, {"size": "3"}, {"size": "384"}, {"size": "1"}]}}}}}, {"name": "StatefulPartitionedCall/ssd_mobile_net_v2fpn_keras_feature_extractor/model/block_10_depthwise/depthwise_bn_offset", "op": "Const", "attr": {"dtype": {"type": "DT_FLOAT"}, "value": {"tensor": {"dtype": "DT_FLOAT", "tensorShape": {"dim": [{"size": "384"}]}}}}}, {"name": "StatefulPartitionedCall/ssd_mobile_net_v2fpn_keras_feature_extractor/model/block_10_project/Conv2D_weights", "op": "Const", "attr": {"value": {"tensor": {"dtype": "DT_FLOAT", "tensorShape": {"dim": [{"size": "1"}, {"size": "1"}, {"size": "384"}, {"size": "96"}]}}}, "dtype": {"type": "DT_FLOAT"}}}, {"name": "StatefulPartitionedCall/ssd_mobile_net_v2fpn_keras_feature_extractor/bottom_up_Conv2d_20_depthwise_conv/separable_conv2d_bn_offset", "op": "Const", "attr": {"dtype": {"type": "DT_FLOAT"}, "value": {"tensor": {"dtype": "DT_FLOAT", "tensorShape": {"dim": [{"size": "128"}]}}}}}, {"name": "StatefulPartitionedCall/ssd_mobile_net_v2fpn_keras_feature_extractor/model/block_10_project/Conv2D_bn_offset", "op": "Const", "attr": {"dtype": {"type": "DT_FLOAT"}, "value": {"tensor": {"dtype": "DT_FLOAT", "tensorShape": {"dim": [{"size": "96"}]}}}}}, {"name": "StatefulPartitionedCall/ssd_mobile_net_v2fpn_keras_feature_extractor/model/block_11_expand/Conv2D_weights", "op": "Const", "attr": {"value": {"tensor": {"dtype": "DT_FLOAT", "tensorShape": {"dim": [{"size": "1"}, {"size": "1"}, {"size": "96"}, {"size": "576"}]}}}, "dtype": {"type": "DT_FLOAT"}}}, {"name": "StatefulPartitionedCall/ssd_mobile_net_v2fpn_keras_feature_extractor/model/block_11_expand/Conv2D_bn_offset", "op": "Const", "attr": {"value": {"tensor": {"dtype": "DT_FLOAT", "tensorShape": {"dim": [{"size": "576"}]}}}, "dtype": {"type": "DT_FLOAT"}}}, {"name": "StatefulPartitionedCall/ssd_mobile_net_v2fpn_keras_feature_extractor/model/block_11_depthwise/depthwise_weights", "op": "Const", "attr": {"dtype": {"type": "DT_FLOAT"}, "value": {"tensor": {"dtype": "DT_FLOAT", "tensorShape": {"dim": [{"size": "3"}, {"size": "3"}, {"size": "576"}, {"size": "1"}]}}}}}, {"name": "StatefulPartitionedCall/ssd_mobile_net_v2fpn_keras_feature_extractor/model/block_11_depthwise/depthwise_bn_offset", "op": "Const", "attr": {"dtype": {"type": "DT_FLOAT"}, "value": {"tensor": {"dtype": "DT_FLOAT", "tensorShape": {"dim": [{"size": "576"}]}}}}}, {"name": "StatefulPartitionedCall/ssd_mobile_net_v2fpn_keras_feature_extractor/model/block_11_project/Conv2D_weights", "op": "Const", "attr": {"value": {"tensor": {"dtype": "DT_FLOAT", "tensorShape": {"dim": [{"size": "1"}, {"size": "1"}, {"size": "576"}, {"size": "96"}]}}}, "dtype": {"type": "DT_FLOAT"}}}, {"name": "StatefulPartitionedCall/ssd_mobile_net_v2fpn_keras_feature_extractor/model/block_11_project/Conv2D_bn_offset", "op": "Const", "attr": {"dtype": {"type": "DT_FLOAT"}, "value": {"tensor": {"dtype": "DT_FLOAT", "tensorShape": {"dim": [{"size": "96"}]}}}}}, {"name": "StatefulPartitionedCall/ssd_mobile_net_v2fpn_keras_feature_extractor/model/block_12_expand/Conv2D_weights", "op": "Const", "attr": {"value": {"tensor": {"dtype": "DT_FLOAT", "tensorShape": {"dim": [{"size": "1"}, {"size": "1"}, {"size": "96"}, {"size": "576"}]}}}, "dtype": {"type": "DT_FLOAT"}}}, {"name": "StatefulPartitionedCall/ssd_mobile_net_v2fpn_keras_feature_extractor/model/block_12_expand/Conv2D_bn_offset", "op": "Const", "attr": {"dtype": {"type": "DT_FLOAT"}, "value": {"tensor": {"dtype": "DT_FLOAT", "tensorShape": {"dim": [{"size": "576"}]}}}}}, {"name": "StatefulPartitionedCall/ssd_mobile_net_v2fpn_keras_feature_extractor/bottom_up_Conv2d_21_depthwise_conv/separable_conv2d_weights", "op": "Const", "attr": {"dtype": {"type": "DT_FLOAT"}, "value": {"tensor": {"dtype": "DT_FLOAT", "tensorShape": {"dim": [{"size": "1"}, {"size": "1"}, {"size": "128"}, {"size": "128"}]}}}}}, {"name": "StatefulPartitionedCall/ssd_mobile_net_v2fpn_keras_feature_extractor/model/block_12_depthwise/depthwise_weights", "op": "Const", "attr": {"value": {"tensor": {"dtype": "DT_FLOAT", "tensorShape": {"dim": [{"size": "3"}, {"size": "3"}, {"size": "576"}, {"size": "1"}]}}}, "dtype": {"type": "DT_FLOAT"}}}, {"name": "StatefulPartitionedCall/ssd_mobile_net_v2fpn_keras_feature_extractor/model/block_12_depthwise/depthwise_bn_offset", "op": "Const", "attr": {"dtype": {"type": "DT_FLOAT"}, "value": {"tensor": {"dtype": "DT_FLOAT", "tensorShape": {"dim": [{"size": "576"}]}}}}}, {"name": "StatefulPartitionedCall/ssd_mobile_net_v2fpn_keras_feature_extractor/model/block_12_project/Conv2D_weights", "op": "Const", "attr": {"dtype": {"type": "DT_FLOAT"}, "value": {"tensor": {"dtype": "DT_FLOAT", "tensorShape": {"dim": [{"size": "1"}, {"size": "1"}, {"size": "576"}, {"size": "96"}]}}}}}, {"name": "StatefulPartitionedCall/ssd_mobile_net_v2fpn_keras_feature_extractor/FeatureMaps/top_down/smoothing_1_depthwise_conv/separable_conv2d_weights", "op": "Const", "attr": {"value": {"tensor": {"dtype": "DT_FLOAT", "tensorShape": {"dim": [{"size": "1"}, {"size": "1"}, {"size": "128"}, {"size": "128"}]}}}, "dtype": {"type": "DT_FLOAT"}}}, {"name": "StatefulPartitionedCall/ssd_mobile_net_v2fpn_keras_feature_extractor/model/block_12_project/Conv2D_bn_offset", "op": "Const", "attr": {"value": {"tensor": {"dtype": "DT_FLOAT", "tensorShape": {"dim": [{"size": "96"}]}}}, "dtype": {"type": "DT_FLOAT"}}}, {"name": "StatefulPartitionedCall/ssd_mobile_net_v2fpn_keras_feature_extractor/bottom_up_Conv2d_21_depthwise_conv/separable_conv2d_bn_offset", "op": "Const", "attr": {"dtype": {"type": "DT_FLOAT"}, "value": {"tensor": {"dtype": "DT_FLOAT", "tensorShape": {"dim": [{"size": "128"}]}}}}}, {"name": "StatefulPartitionedCall/ssd_mobile_net_v2fpn_keras_feature_extractor/model/block_13_expand/Conv2D_weights", "op": "Const", "attr": {"dtype": {"type": "DT_FLOAT"}, "value": {"tensor": {"dtype": "DT_FLOAT", "tensorShape": {"dim": [{"size": "1"}, {"size": "1"}, {"size": "96"}, {"size": "576"}]}}}}}, {"name": "StatefulPartitionedCall/ssd_mobile_net_v2fpn_keras_feature_extractor/model/block_13_expand/Conv2D_bn_offset", "op": "Const", "attr": {"dtype": {"type": "DT_FLOAT"}, "value": {"tensor": {"dtype": "DT_FLOAT", "tensorShape": {"dim": [{"size": "576"}]}}}}}, {"name": "StatefulPartitionedCall/ssd_mobile_net_v2fpn_keras_feature_extractor/model/block_13_depthwise/depthwise_weights", "op": "Const", "attr": {"value": {"tensor": {"dtype": "DT_FLOAT", "tensorShape": {"dim": [{"size": "3"}, {"size": "3"}, {"size": "576"}, {"size": "1"}]}}}, "dtype": {"type": "DT_FLOAT"}}}, {"name": "StatefulPartitionedCall/ssd_mobile_net_v2fpn_keras_feature_extractor/model/block_13_depthwise/depthwise_bn_offset", "op": "Const", "attr": {"dtype": {"type": "DT_FLOAT"}, "value": {"tensor": {"dtype": "DT_FLOAT", "tensorShape": {"dim": [{"size": "576"}]}}}}}, {"name": "StatefulPartitionedCall/ssd_mobile_net_v2fpn_keras_feature_extractor/model/block_13_project/Conv2D_weights", "op": "Const", "attr": {"dtype": {"type": "DT_FLOAT"}, "value": {"tensor": {"dtype": "DT_FLOAT", "tensorShape": {"dim": [{"size": "1"}, {"size": "1"}, {"size": "576"}, {"size": "160"}]}}}}}, {"name": "StatefulPartitionedCall/ssd_mobile_net_v2fpn_keras_feature_extractor/model/block_13_project/Conv2D_bn_offset", "op": "Const", "attr": {"dtype": {"type": "DT_FLOAT"}, "value": {"tensor": {"dtype": "DT_FLOAT", "tensorShape": {"dim": [{"size": "160"}]}}}}}, {"name": "StatefulPartitionedCall/ssd_mobile_net_v2fpn_keras_feature_extractor/model/block_14_expand/Conv2D_weights", "op": "Const", "attr": {"value": {"tensor": {"dtype": "DT_FLOAT", "tensorShape": {"dim": [{"size": "1"}, {"size": "1"}, {"size": "160"}, {"size": "960"}]}}}, "dtype": {"type": "DT_FLOAT"}}}, {"name": "StatefulPartitionedCall/ssd_mobile_net_v2fpn_keras_feature_extractor/FeatureMaps/top_down/smoothing_2_depthwise_conv/separable_conv2d_weights", "op": "Const", "attr": {"value": {"tensor": {"dtype": "DT_FLOAT", "tensorShape": {"dim": [{"size": "1"}, {"size": "1"}, {"size": "128"}, {"size": "128"}]}}}, "dtype": {"type": "DT_FLOAT"}}}, {"name": "StatefulPartitionedCall/ssd_mobile_net_v2fpn_keras_feature_extractor/model/block_14_expand/Conv2D_bn_offset", "op": "Const", "attr": {"dtype": {"type": "DT_FLOAT"}, "value": {"tensor": {"dtype": "DT_FLOAT", "tensorShape": {"dim": [{"size": "960"}]}}}}}, {"name": "StatefulPartitionedCall/ssd_mobile_net_v2fpn_keras_feature_extractor/FeatureMaps/top_down/smoothing_1_depthwise_conv/separable_conv2d_bn_offset", "op": "Const", "attr": {"dtype": {"type": "DT_FLOAT"}, "value": {"tensor": {"dtype": "DT_FLOAT", "tensorShape": {"dim": [{"size": "128"}]}}}}}, {"name": "StatefulPartitionedCall/ssd_mobile_net_v2fpn_keras_feature_extractor/model/block_14_depthwise/depthwise_weights", "op": "Const", "attr": {"dtype": {"type": "DT_FLOAT"}, "value": {"tensor": {"dtype": "DT_FLOAT", "tensorShape": {"dim": [{"size": "3"}, {"size": "3"}, {"size": "960"}, {"size": "1"}]}}}}}, {"name": "StatefulPartitionedCall/ssd_mobile_net_v2fpn_keras_feature_extractor/model/block_14_depthwise/depthwise_bn_offset", "op": "Const", "attr": {"dtype": {"type": "DT_FLOAT"}, "value": {"tensor": {"dtype": "DT_FLOAT", "tensorShape": {"dim": [{"size": "960"}]}}}}}, {"name": "StatefulPartitionedCall/ssd_mobile_net_v2fpn_keras_feature_extractor/model/block_14_project/Conv2D_weights", "op": "Const", "attr": {"value": {"tensor": {"dtype": "DT_FLOAT", "tensorShape": {"dim": [{"size": "1"}, {"size": "1"}, {"size": "960"}, {"size": "160"}]}}}, "dtype": {"type": "DT_FLOAT"}}}, {"name": "StatefulPartitionedCall/ssd_mobile_net_v2fpn_keras_feature_extractor/FeatureMaps/top_down/smoothing_2_depthwise_conv/separable_conv2d_bn_offset", "op": "Const", "attr": {"value": {"tensor": {"dtype": "DT_FLOAT", "tensorShape": {"dim": [{"size": "128"}]}}}, "dtype": {"type": "DT_FLOAT"}}}, {"name": "StatefulPartitionedCall/ssd_mobile_net_v2fpn_keras_feature_extractor/model/block_14_project/Conv2D_bn_offset", "op": "Const", "attr": {"dtype": {"type": "DT_FLOAT"}, "value": {"tensor": {"dtype": "DT_FLOAT", "tensorShape": {"dim": [{"size": "160"}]}}}}}, {"name": "StatefulPartitionedCall/ssd_mobile_net_v2fpn_keras_feature_extractor/model/block_15_expand/Conv2D_weights", "op": "Const", "attr": {"value": {"tensor": {"dtype": "DT_FLOAT", "tensorShape": {"dim": [{"size": "1"}, {"size": "1"}, {"size": "160"}, {"size": "960"}]}}}, "dtype": {"type": "DT_FLOAT"}}}, {"name": "StatefulPartitionedCall/ssd_mobile_net_v2fpn_keras_feature_extractor/model/block_15_expand/Conv2D_bn_offset", "op": "Const", "attr": {"value": {"tensor": {"dtype": "DT_FLOAT", "tensorShape": {"dim": [{"size": "960"}]}}}, "dtype": {"type": "DT_FLOAT"}}}, {"name": "StatefulPartitionedCall/ssd_mobile_net_v2fpn_keras_feature_extractor/model/block_15_depthwise/depthwise_weights", "op": "Const", "attr": {"value": {"tensor": {"dtype": "DT_FLOAT", "tensorShape": {"dim": [{"size": "3"}, {"size": "3"}, {"size": "960"}, {"size": "1"}]}}}, "dtype": {"type": "DT_FLOAT"}}}, {"name": "StatefulPartitionedCall/ssd_mobile_net_v2fpn_keras_feature_extractor/model/block_15_depthwise/depthwise_bn_offset", "op": "Const", "attr": {"dtype": {"type": "DT_FLOAT"}, "value": {"tensor": {"dtype": "DT_FLOAT", "tensorShape": {"dim": [{"size": "960"}]}}}}}, {"name": "StatefulPartitionedCall/ssd_mobile_net_v2fpn_keras_feature_extractor/model/block_15_project/Conv2D_weights", "op": "Const", "attr": {"dtype": {"type": "DT_FLOAT"}, "value": {"tensor": {"dtype": "DT_FLOAT", "tensorShape": {"dim": [{"size": "1"}, {"size": "1"}, {"size": "960"}, {"size": "160"}]}}}}}, {"name": "StatefulPartitionedCall/ssd_mobile_net_v2fpn_keras_feature_extractor/model/block_15_project/Conv2D_bn_offset", "op": "Const", "attr": {"value": {"tensor": {"dtype": "DT_FLOAT", "tensorShape": {"dim": [{"size": "160"}]}}}, "dtype": {"type": "DT_FLOAT"}}}, {"name": "StatefulPartitionedCall/ssd_mobile_net_v2fpn_keras_feature_extractor/model/Conv1_relu/Relu6", "op": "_FusedConv2D", "input": ["input_1", "StatefulPartitionedCall/ssd_mobile_net_v2fpn_keras_feature_extractor/model/Conv1/Conv2D_weights", "StatefulPartitionedCall/ssd_mobile_net_v2fpn_keras_feature_extractor/model/Conv1/Conv2D_bn_offset"], "device": "/device:CPU:0", "attr": {"explicit_paddings": {"list": {}}, "strides": {"list": {"i": ["1", "2", "2", "1"]}}, "use_cudnn_on_gpu": {"b": true}, "padding": {"s": "U0FNRQ=="}, "data_format": {"s": "TkhXQw=="}, "epsilon": {"f": 0.0}, "T": {"type": "DT_FLOAT"}, "dilations": {"list": {"i": ["1", "1", "1", "1"]}}, "num_args": {"i": "1"}, "fused_ops": {"list": {"s": ["Qmlhc0FkZA==", "UmVsdTY="]}}}}, {"name": "StatefulPartitionedCall/ssd_mobile_net_v2fpn_keras_feature_extractor/model/expanded_conv_depthwise/depthwise", "op": "FusedDepthwiseConv2dNative", "input": ["StatefulPartitionedCall/ssd_mobile_net_v2fpn_keras_feature_extractor/model/Conv1_relu/Relu6", "StatefulPartitionedCall/ssd_mobile_net_v2fpn_keras_feature_extractor/model/expanded_conv_depthwise/depthwise_weights", "StatefulPartitionedCall/ssd_mobile_net_v2fpn_keras_feature_extractor/model/expanded_conv_depthwise/depthwise_bn_offset"], "attr": {"num_args": {"i": "1"}, "padding": {"s": "U0FNRQ=="}, "fused_ops": {"list": {"s": ["Qmlhc0FkZA==", "UmVsdTY="]}}, "T": {"type": "DT_FLOAT"}, "data_format": {"s": "TkhXQw=="}, "explicit_paddings": {"list": {}}, "strides": {"list": {"i": ["1", "1", "1", "1"]}}, "dilations": {"list": {"i": ["1", "1", "1", "1"]}}}}, {"name": "StatefulPartitionedCall/ssd_mobile_net_v2fpn_keras_feature_extractor/model/expanded_conv_project_BN/FusedBatchNormV3", "op": "_FusedConv2D", "input": ["StatefulPartitionedCall/ssd_mobile_net_v2fpn_keras_feature_extractor/model/expanded_conv_depthwise/depthwise", "StatefulPartitionedCall/ssd_mobile_net_v2fpn_keras_feature_extractor/model/expanded_conv_project/Conv2D_weights", "StatefulPartitionedCall/ssd_mobile_net_v2fpn_keras_feature_extractor/model/expanded_conv_project/Conv2D_bn_offset"], "device": "/device:CPU:0", "attr": {"epsilon": {"f": 0.0}, "dilations": {"list": {"i": ["1", "1", "1", "1"]}}, "fused_ops": {"list": {"s": ["Qmlhc0FkZA=="]}}, "T": {"type": "DT_FLOAT"}, "data_format": {"s": "TkhXQw=="}, "padding": {"s": "U0FNRQ=="}, "strides": {"list": {"i": ["1", "1", "1", "1"]}}, "explicit_paddings": {"list": {}}, "num_args": {"i": "1"}, "use_cudnn_on_gpu": {"b": true}}}, {"name": "StatefulPartitionedCall/ssd_mobile_net_v2fpn_keras_feature_extractor/model/block_1_expand_relu/Relu6", "op": "_FusedConv2D", "input": ["StatefulPartitionedCall/ssd_mobile_net_v2fpn_keras_feature_extractor/model/expanded_conv_project_BN/FusedBatchNormV3", "StatefulPartitionedCall/ssd_mobile_net_v2fpn_keras_feature_extractor/model/block_1_expand/Conv2D_weights", "StatefulPartitionedCall/ssd_mobile_net_v2fpn_keras_feature_extractor/model/block_1_expand/Conv2D_bn_offset"], "device": "/device:CPU:0", "attr": {"dilations": {"list": {"i": ["1", "1", "1", "1"]}}, "fused_ops": {"list": {"s": ["Qmlhc0FkZA==", "UmVsdTY="]}}, "explicit_paddings": {"list": {}}, "data_format": {"s": "TkhXQw=="}, "T": {"type": "DT_FLOAT"}, "epsilon": {"f": 0.0}, "strides": {"list": {"i": ["1", "1", "1", "1"]}}, "padding": {"s": "U0FNRQ=="}, "use_cudnn_on_gpu": {"b": true}, "num_args": {"i": "1"}}}, {"name": "StatefulPartitionedCall/ssd_mobile_net_v2fpn_keras_feature_extractor/model/block_1_depthwise/depthwise", "op": "FusedDepthwiseConv2dNative", "input": ["StatefulPartitionedCall/ssd_mobile_net_v2fpn_keras_feature_extractor/model/block_1_expand_relu/Relu6", "StatefulPartitionedCall/ssd_mobile_net_v2fpn_keras_feature_extractor/model/block_1_depthwise/depthwise_weights", "StatefulPartitionedCall/ssd_mobile_net_v2fpn_keras_feature_extractor/model/block_1_depthwise/depthwise_bn_offset"], "attr": {"data_format": {"s": "TkhXQw=="}, "T": {"type": "DT_FLOAT"}, "strides": {"list": {"i": ["1", "2", "2", "1"]}}, "num_args": {"i": "1"}, "explicit_paddings": {"list": {}}, "dilations": {"list": {"i": ["1", "1", "1", "1"]}}, "fused_ops": {"list": {"s": ["Qmlhc0FkZA==", "UmVsdTY="]}}, "padding": {"s": "U0FNRQ=="}}}, {"name": "StatefulPartitionedCall/ssd_mobile_net_v2fpn_keras_feature_extractor/model/block_1_project_BN/FusedBatchNormV3", "op": "_FusedConv2D", "input": ["StatefulPartitionedCall/ssd_mobile_net_v2fpn_keras_feature_extractor/model/block_1_depthwise/depthwise", "StatefulPartitionedCall/ssd_mobile_net_v2fpn_keras_feature_extractor/model/block_1_project/Conv2D_weights", "StatefulPartitionedCall/ssd_mobile_net_v2fpn_keras_feature_extractor/model/block_1_project/Conv2D_bn_offset"], "device": "/device:CPU:0", "attr": {"padding": {"s": "U0FNRQ=="}, "num_args": {"i": "1"}, "strides": {"list": {"i": ["1", "1", "1", "1"]}}, "dilations": {"list": {"i": ["1", "1", "1", "1"]}}, "use_cudnn_on_gpu": {"b": true}, "T": {"type": "DT_FLOAT"}, "epsilon": {"f": 0.0}, "explicit_paddings": {"list": {}}, "data_format": {"s": "TkhXQw=="}, "fused_ops": {"list": {"s": ["Qmlhc0FkZA=="]}}}}, {"name": "StatefulPartitionedCall/ssd_mobile_net_v2fpn_keras_feature_extractor/model/block_2_expand_relu/Relu6", "op": "_FusedConv2D", "input": ["StatefulPartitionedCall/ssd_mobile_net_v2fpn_keras_feature_extractor/model/block_1_project_BN/FusedBatchNormV3", "StatefulPartitionedCall/ssd_mobile_net_v2fpn_keras_feature_extractor/model/block_2_expand/Conv2D_weights", "StatefulPartitionedCall/ssd_mobile_net_v2fpn_keras_feature_extractor/model/block_2_expand/Conv2D_bn_offset"], "device": "/device:CPU:0", "attr": {"padding": {"s": "U0FNRQ=="}, "use_cudnn_on_gpu": {"b": true}, "explicit_paddings": {"list": {}}, "num_args": {"i": "1"}, "dilations": {"list": {"i": ["1", "1", "1", "1"]}}, "fused_ops": {"list": {"s": ["Qmlhc0FkZA==", "UmVsdTY="]}}, "T": {"type": "DT_FLOAT"}, "data_format": {"s": "TkhXQw=="}, "epsilon": {"f": 0.0}, "strides": {"list": {"i": ["1", "1", "1", "1"]}}}}, {"name": "StatefulPartitionedCall/ssd_mobile_net_v2fpn_keras_feature_extractor/model/block_2_depthwise/depthwise", "op": "FusedDepthwiseConv2dNative", "input": ["StatefulPartitionedCall/ssd_mobile_net_v2fpn_keras_feature_extractor/model/block_2_expand_relu/Relu6", "StatefulPartitionedCall/ssd_mobile_net_v2fpn_keras_feature_extractor/model/block_2_depthwise/depthwise_weights", "StatefulPartitionedCall/ssd_mobile_net_v2fpn_keras_feature_extractor/model/block_2_depthwise/depthwise_bn_offset"], "attr": {"fused_ops": {"list": {"s": ["Qmlhc0FkZA==", "UmVsdTY="]}}, "dilations": {"list": {"i": ["1", "1", "1", "1"]}}, "num_args": {"i": "1"}, "explicit_paddings": {"list": {}}, "T": {"type": "DT_FLOAT"}, "data_format": {"s": "TkhXQw=="}, "padding": {"s": "U0FNRQ=="}, "strides": {"list": {"i": ["1", "1", "1", "1"]}}}}, {"name": "StatefulPartitionedCall/ssd_mobile_net_v2fpn_keras_feature_extractor/model/block_2_project_BN/FusedBatchNormV3", "op": "_FusedConv2D", "input": ["StatefulPartitionedCall/ssd_mobile_net_v2fpn_keras_feature_extractor/model/block_2_depthwise/depthwise", "StatefulPartitionedCall/ssd_mobile_net_v2fpn_keras_feature_extractor/model/block_2_project/Conv2D_weights", "StatefulPartitionedCall/ssd_mobile_net_v2fpn_keras_feature_extractor/model/block_2_project/Conv2D_bn_offset"], "device": "/device:CPU:0", "attr": {"fused_ops": {"list": {"s": ["Qmlhc0FkZA=="]}}, "T": {"type": "DT_FLOAT"}, "explicit_paddings": {"list": {}}, "epsilon": {"f": 0.0}, "strides": {"list": {"i": ["1", "1", "1", "1"]}}, "num_args": {"i": "1"}, "dilations": {"list": {"i": ["1", "1", "1", "1"]}}, "use_cudnn_on_gpu": {"b": true}, "padding": {"s": "U0FNRQ=="}, "data_format": {"s": "TkhXQw=="}}}, {"name": "StatefulPartitionedCall/ssd_mobile_net_v2fpn_keras_feature_extractor/model/block_2_add/add", "op": "AddV2", "input": ["StatefulPartitionedCall/ssd_mobile_net_v2fpn_keras_feature_extractor/model/block_1_project_BN/FusedBatchNormV3", "StatefulPartitionedCall/ssd_mobile_net_v2fpn_keras_feature_extractor/model/block_2_project_BN/FusedBatchNormV3"], "attr": {"T": {"type": "DT_FLOAT"}}}, {"name": "StatefulPartitionedCall/ssd_mobile_net_v2fpn_keras_feature_extractor/model/block_3_expand_relu/Relu6", "op": "_FusedConv2D", "input": ["StatefulPartitionedCall/ssd_mobile_net_v2fpn_keras_feature_extractor/model/block_2_add/add", "StatefulPartitionedCall/ssd_mobile_net_v2fpn_keras_feature_extractor/model/block_3_expand/Conv2D_weights", "StatefulPartitionedCall/ssd_mobile_net_v2fpn_keras_feature_extractor/model/block_3_expand/Conv2D_bn_offset"], "device": "/device:CPU:0", "attr": {"epsilon": {"f": 0.0}, "dilations": {"list": {"i": ["1", "1", "1", "1"]}}, "explicit_paddings": {"list": {}}, "data_format": {"s": "TkhXQw=="}, "T": {"type": "DT_FLOAT"}, "strides": {"list": {"i": ["1", "1", "1", "1"]}}, "use_cudnn_on_gpu": {"b": true}, "num_args": {"i": "1"}, "fused_ops": {"list": {"s": ["Qmlhc0FkZA==", "UmVsdTY="]}}, "padding": {"s": "U0FNRQ=="}}}, {"name": "StatefulPartitionedCall/ssd_mobile_net_v2fpn_keras_feature_extractor/model/block_3_depthwise/depthwise", "op": "FusedDepthwiseConv2dNative", "input": ["StatefulPartitionedCall/ssd_mobile_net_v2fpn_keras_feature_extractor/model/block_3_expand_relu/Relu6", "StatefulPartitionedCall/ssd_mobile_net_v2fpn_keras_feature_extractor/model/block_3_depthwise/depthwise_weights", "StatefulPartitionedCall/ssd_mobile_net_v2fpn_keras_feature_extractor/model/block_3_depthwise/depthwise_bn_offset"], "attr": {"num_args": {"i": "1"}, "strides": {"list": {"i": ["1", "2", "2", "1"]}}, "data_format": {"s": "TkhXQw=="}, "explicit_paddings": {"list": {}}, "T": {"type": "DT_FLOAT"}, "padding": {"s": "U0FNRQ=="}, "fused_ops": {"list": {"s": ["Qmlhc0FkZA==", "UmVsdTY="]}}, "dilations": {"list": {"i": ["1", "1", "1", "1"]}}}}, {"name": "StatefulPartitionedCall/ssd_mobile_net_v2fpn_keras_feature_extractor/model/block_3_project_BN/FusedBatchNormV3", "op": "_FusedConv2D", "input": ["StatefulPartitionedCall/ssd_mobile_net_v2fpn_keras_feature_extractor/model/block_3_depthwise/depthwise", "StatefulPartitionedCall/ssd_mobile_net_v2fpn_keras_feature_extractor/model/block_3_project/Conv2D_weights", "StatefulPartitionedCall/ssd_mobile_net_v2fpn_keras_feature_extractor/model/block_3_project/Conv2D_bn_offset"], "device": "/device:CPU:0", "attr": {"T": {"type": "DT_FLOAT"}, "epsilon": {"f": 0.0}, "data_format": {"s": "TkhXQw=="}, "strides": {"list": {"i": ["1", "1", "1", "1"]}}, "padding": {"s": "U0FNRQ=="}, "num_args": {"i": "1"}, "use_cudnn_on_gpu": {"b": true}, "explicit_paddings": {"list": {}}, "fused_ops": {"list": {"s": ["Qmlhc0FkZA=="]}}, "dilations": {"list": {"i": ["1", "1", "1", "1"]}}}}, {"name": "StatefulPartitionedCall/ssd_mobile_net_v2fpn_keras_feature_extractor/model/block_4_expand_relu/Relu6", "op": "_FusedConv2D", "input": ["StatefulPartitionedCall/ssd_mobile_net_v2fpn_keras_feature_extractor/model/block_3_project_BN/FusedBatchNormV3", "StatefulPartitionedCall/ssd_mobile_net_v2fpn_keras_feature_extractor/model/block_4_expand/Conv2D_weights", "StatefulPartitionedCall/ssd_mobile_net_v2fpn_keras_feature_extractor/model/block_4_expand/Conv2D_bn_offset"], "device": "/device:CPU:0", "attr": {"num_args": {"i": "1"}, "strides": {"list": {"i": ["1", "1", "1", "1"]}}, "fused_ops": {"list": {"s": ["Qmlhc0FkZA==", "UmVsdTY="]}}, "data_format": {"s": "TkhXQw=="}, "padding": {"s": "U0FNRQ=="}, "explicit_paddings": {"list": {}}, "T": {"type": "DT_FLOAT"}, "dilations": {"list": {"i": ["1", "1", "1", "1"]}}, "use_cudnn_on_gpu": {"b": true}, "epsilon": {"f": 0.0}}}, {"name": "StatefulPartitionedCall/ssd_mobile_net_v2fpn_keras_feature_extractor/model/block_4_depthwise/depthwise", "op": "FusedDepthwiseConv2dNative", "input": ["StatefulPartitionedCall/ssd_mobile_net_v2fpn_keras_feature_extractor/model/block_4_expand_relu/Relu6", "StatefulPartitionedCall/ssd_mobile_net_v2fpn_keras_feature_extractor/model/block_4_depthwise/depthwise_weights", "StatefulPartitionedCall/ssd_mobile_net_v2fpn_keras_feature_extractor/model/block_4_depthwise/depthwise_bn_offset"], "attr": {"strides": {"list": {"i": ["1", "1", "1", "1"]}}, "explicit_paddings": {"list": {}}, "padding": {"s": "U0FNRQ=="}, "dilations": {"list": {"i": ["1", "1", "1", "1"]}}, "num_args": {"i": "1"}, "T": {"type": "DT_FLOAT"}, "data_format": {"s": "TkhXQw=="}, "fused_ops": {"list": {"s": ["Qmlhc0FkZA==", "UmVsdTY="]}}}}, {"name": "StatefulPartitionedCall/ssd_mobile_net_v2fpn_keras_feature_extractor/model/block_4_project_BN/FusedBatchNormV3", "op": "_FusedConv2D", "input": ["StatefulPartitionedCall/ssd_mobile_net_v2fpn_keras_feature_extractor/model/block_4_depthwise/depthwise", "StatefulPartitionedCall/ssd_mobile_net_v2fpn_keras_feature_extractor/model/block_4_project/Conv2D_weights", "StatefulPartitionedCall/ssd_mobile_net_v2fpn_keras_feature_extractor/model/block_4_project/Conv2D_bn_offset"], "device": "/device:CPU:0", "attr": {"dilations": {"list": {"i": ["1", "1", "1", "1"]}}, "padding": {"s": "U0FNRQ=="}, "fused_ops": {"list": {"s": ["Qmlhc0FkZA=="]}}, "num_args": {"i": "1"}, "data_format": {"s": "TkhXQw=="}, "use_cudnn_on_gpu": {"b": true}, "explicit_paddings": {"list": {}}, "T": {"type": "DT_FLOAT"}, "epsilon": {"f": 0.0}, "strides": {"list": {"i": ["1", "1", "1", "1"]}}}}, {"name": "StatefulPartitionedCall/ssd_mobile_net_v2fpn_keras_feature_extractor/model/block_4_add/add", "op": "AddV2", "input": ["StatefulPartitionedCall/ssd_mobile_net_v2fpn_keras_feature_extractor/model/block_3_project_BN/FusedBatchNormV3", "StatefulPartitionedCall/ssd_mobile_net_v2fpn_keras_feature_extractor/model/block_4_project_BN/FusedBatchNormV3"], "attr": {"T": {"type": "DT_FLOAT"}}}, {"name": "StatefulPartitionedCall/ssd_mobile_net_v2fpn_keras_feature_extractor/model/block_5_expand_relu/Relu6", "op": "_FusedConv2D", "input": ["StatefulPartitionedCall/ssd_mobile_net_v2fpn_keras_feature_extractor/model/block_4_add/add", "StatefulPartitionedCall/ssd_mobile_net_v2fpn_keras_feature_extractor/model/block_5_expand/Conv2D_weights", "StatefulPartitionedCall/ssd_mobile_net_v2fpn_keras_feature_extractor/model/block_5_expand/Conv2D_bn_offset"], "device": "/device:CPU:0", "attr": {"num_args": {"i": "1"}, "fused_ops": {"list": {"s": ["Qmlhc0FkZA==", "UmVsdTY="]}}, "strides": {"list": {"i": ["1", "1", "1", "1"]}}, "epsilon": {"f": 0.0}, "explicit_paddings": {"list": {}}, "dilations": {"list": {"i": ["1", "1", "1", "1"]}}, "use_cudnn_on_gpu": {"b": true}, "padding": {"s": "U0FNRQ=="}, "T": {"type": "DT_FLOAT"}, "data_format": {"s": "TkhXQw=="}}}, {"name": "StatefulPartitionedCall/ssd_mobile_net_v2fpn_keras_feature_extractor/model/block_5_depthwise/depthwise", "op": "FusedDepthwiseConv2dNative", "input": ["StatefulPartitionedCall/ssd_mobile_net_v2fpn_keras_feature_extractor/model/block_5_expand_relu/Relu6", "StatefulPartitionedCall/ssd_mobile_net_v2fpn_keras_feature_extractor/model/block_5_depthwise/depthwise_weights", "StatefulPartitionedCall/ssd_mobile_net_v2fpn_keras_feature_extractor/model/block_5_depthwise/depthwise_bn_offset"], "attr": {"num_args": {"i": "1"}, "T": {"type": "DT_FLOAT"}, "fused_ops": {"list": {"s": ["Qmlhc0FkZA==", "UmVsdTY="]}}, "explicit_paddings": {"list": {}}, "padding": {"s": "U0FNRQ=="}, "strides": {"list": {"i": ["1", "1", "1", "1"]}}, "data_format": {"s": "TkhXQw=="}, "dilations": {"list": {"i": ["1", "1", "1", "1"]}}}}, {"name": "StatefulPartitionedCall/ssd_mobile_net_v2fpn_keras_feature_extractor/model/block_5_project_BN/FusedBatchNormV3", "op": "_FusedConv2D", "input": ["StatefulPartitionedCall/ssd_mobile_net_v2fpn_keras_feature_extractor/model/block_5_depthwise/depthwise", "StatefulPartitionedCall/ssd_mobile_net_v2fpn_keras_feature_extractor/model/block_5_project/Conv2D_weights", "StatefulPartitionedCall/ssd_mobile_net_v2fpn_keras_feature_extractor/model/block_5_project/Conv2D_bn_offset"], "device": "/device:CPU:0", "attr": {"epsilon": {"f": 0.0}, "dilations": {"list": {"i": ["1", "1", "1", "1"]}}, "use_cudnn_on_gpu": {"b": true}, "explicit_paddings": {"list": {}}, "padding": {"s": "U0FNRQ=="}, "fused_ops": {"list": {"s": ["Qmlhc0FkZA=="]}}, "T": {"type": "DT_FLOAT"}, "data_format": {"s": "TkhXQw=="}, "num_args": {"i": "1"}, "strides": {"list": {"i": ["1", "1", "1", "1"]}}}}, {"name": "StatefulPartitionedCall/ssd_mobile_net_v2fpn_keras_feature_extractor/model/block_5_add/add", "op": "AddV2", "input": ["StatefulPartitionedCall/ssd_mobile_net_v2fpn_keras_feature_extractor/model/block_4_add/add", "StatefulPartitionedCall/ssd_mobile_net_v2fpn_keras_feature_extractor/model/block_5_project_BN/FusedBatchNormV3"], "attr": {"T": {"type": "DT_FLOAT"}}}, {"name": "StatefulPartitionedCall/ssd_mobile_net_v2fpn_keras_feature_extractor/FeatureMaps/top_down/projection_1/BiasAdd", "op": "_FusedConv2D", "input": ["StatefulPartitionedCall/ssd_mobile_net_v2fpn_keras_feature_extractor/model/block_5_add/add", "StatefulPartitionedCall/ssd_mobile_net_v2fpn_keras_feature_extractor/FeatureMaps/top_down/projection_1/Conv2D/ReadVariableOp", "StatefulPartitionedCall/ssd_mobile_net_v2fpn_keras_feature_extractor/FeatureMaps/top_down/projection_1/BiasAdd/ReadVariableOp"], "device": "/device:CPU:0", "attr": {"fused_ops": {"list": {"s": ["Qmlhc0FkZA=="]}}, "use_cudnn_on_gpu": {"b": true}, "data_format": {"s": "TkhXQw=="}, "explicit_paddings": {"list": {}}, "padding": {"s": "U0FNRQ=="}, "num_args": {"i": "1"}, "epsilon": {"f": 0.0}, "dilations": {"list": {"i": ["1", "1", "1", "1"]}}, "strides": {"list": {"i": ["1", "1", "1", "1"]}}, "T": {"type": "DT_FLOAT"}}}, {"name": "StatefulPartitionedCall/ssd_mobile_net_v2fpn_keras_feature_extractor/model/block_6_expand_relu/Relu6", "op": "_FusedConv2D", "input": ["StatefulPartitionedCall/ssd_mobile_net_v2fpn_keras_feature_extractor/model/block_5_add/add", "StatefulPartitionedCall/ssd_mobile_net_v2fpn_keras_feature_extractor/model/block_6_expand/Conv2D_weights", "StatefulPartitionedCall/ssd_mobile_net_v2fpn_keras_feature_extractor/model/block_6_expand/Conv2D_bn_offset"], "device": "/device:CPU:0", "attr": {"data_format": {"s": "TkhXQw=="}, "padding": {"s": "U0FNRQ=="}, "dilations": {"list": {"i": ["1", "1", "1", "1"]}}, "T": {"type": "DT_FLOAT"}, "explicit_paddings": {"list": {}}, "use_cudnn_on_gpu": {"b": true}, "epsilon": {"f": 0.0}, "num_args": {"i": "1"}, "strides": {"list": {"i": ["1", "1", "1", "1"]}}, "fused_ops": {"list": {"s": ["Qmlhc0FkZA==", "UmVsdTY="]}}}}, {"name": "StatefulPartitionedCall/ssd_mobile_net_v2fpn_keras_feature_extractor/model/block_6_depthwise/depthwise", "op": "FusedDepthwiseConv2dNative", "input": ["StatefulPartitionedCall/ssd_mobile_net_v2fpn_keras_feature_extractor/model/block_6_expand_relu/Relu6", "StatefulPartitionedCall/ssd_mobile_net_v2fpn_keras_feature_extractor/model/block_6_depthwise/depthwise_weights", "StatefulPartitionedCall/ssd_mobile_net_v2fpn_keras_feature_extractor/model/block_6_depthwise/depthwise_bn_offset"], "attr": {"data_format": {"s": "TkhXQw=="}, "fused_ops": {"list": {"s": ["Qmlhc0FkZA==", "UmVsdTY="]}}, "padding": {"s": "U0FNRQ=="}, "dilations": {"list": {"i": ["1", "1", "1", "1"]}}, "num_args": {"i": "1"}, "explicit_paddings": {"list": {}}, "strides": {"list": {"i": ["1", "2", "2", "1"]}}, "T": {"type": "DT_FLOAT"}}}, {"name": "StatefulPartitionedCall/ssd_mobile_net_v2fpn_keras_feature_extractor/model/block_6_project_BN/FusedBatchNormV3", "op": "_FusedConv2D", "input": ["StatefulPartitionedCall/ssd_mobile_net_v2fpn_keras_feature_extractor/model/block_6_depthwise/depthwise", "StatefulPartitionedCall/ssd_mobile_net_v2fpn_keras_feature_extractor/model/block_6_project/Conv2D_weights", "StatefulPartitionedCall/ssd_mobile_net_v2fpn_keras_feature_extractor/model/block_6_project/Conv2D_bn_offset"], "device": "/device:CPU:0", "attr": {"num_args": {"i": "1"}, "strides": {"list": {"i": ["1", "1", "1", "1"]}}, "fused_ops": {"list": {"s": ["Qmlhc0FkZA=="]}}, "explicit_paddings": {"list": {}}, "dilations": {"list": {"i": ["1", "1", "1", "1"]}}, "T": {"type": "DT_FLOAT"}, "data_format": {"s": "TkhXQw=="}, "use_cudnn_on_gpu": {"b": true}, "padding": {"s": "U0FNRQ=="}, "epsilon": {"f": 0.0}}}, {"name": "StatefulPartitionedCall/ssd_mobile_net_v2fpn_keras_feature_extractor/model/block_7_expand_relu/Relu6", "op": "_FusedConv2D", "input": ["StatefulPartitionedCall/ssd_mobile_net_v2fpn_keras_feature_extractor/model/block_6_project_BN/FusedBatchNormV3", "StatefulPartitionedCall/ssd_mobile_net_v2fpn_keras_feature_extractor/model/block_7_expand/Conv2D_weights", "StatefulPartitionedCall/ssd_mobile_net_v2fpn_keras_feature_extractor/model/block_7_expand/Conv2D_bn_offset"], "device": "/device:CPU:0", "attr": {"epsilon": {"f": 0.0}, "T": {"type": "DT_FLOAT"}, "data_format": {"s": "TkhXQw=="}, "explicit_paddings": {"list": {}}, "dilations": {"list": {"i": ["1", "1", "1", "1"]}}, "padding": {"s": "U0FNRQ=="}, "use_cudnn_on_gpu": {"b": true}, "num_args": {"i": "1"}, "fused_ops": {"list": {"s": ["Qmlhc0FkZA==", "UmVsdTY="]}}, "strides": {"list": {"i": ["1", "1", "1", "1"]}}}}, {"name": "StatefulPartitionedCall/ssd_mobile_net_v2fpn_keras_feature_extractor/model/block_7_depthwise/depthwise", "op": "FusedDepthwiseConv2dNative", "input": ["StatefulPartitionedCall/ssd_mobile_net_v2fpn_keras_feature_extractor/model/block_7_expand_relu/Relu6", "StatefulPartitionedCall/ssd_mobile_net_v2fpn_keras_feature_extractor/model/block_7_depthwise/depthwise_weights", "StatefulPartitionedCall/ssd_mobile_net_v2fpn_keras_feature_extractor/model/block_7_depthwise/depthwise_bn_offset"], "attr": {"fused_ops": {"list": {"s": ["Qmlhc0FkZA==", "UmVsdTY="]}}, "data_format": {"s": "TkhXQw=="}, "explicit_paddings": {"list": {}}, "dilations": {"list": {"i": ["1", "1", "1", "1"]}}, "T": {"type": "DT_FLOAT"}, "padding": {"s": "U0FNRQ=="}, "strides": {"list": {"i": ["1", "1", "1", "1"]}}, "num_args": {"i": "1"}}}, {"name": "StatefulPartitionedCall/ssd_mobile_net_v2fpn_keras_feature_extractor/model/block_7_project_BN/FusedBatchNormV3", "op": "_FusedConv2D", "input": ["StatefulPartitionedCall/ssd_mobile_net_v2fpn_keras_feature_extractor/model/block_7_depthwise/depthwise", "StatefulPartitionedCall/ssd_mobile_net_v2fpn_keras_feature_extractor/model/block_7_project/Conv2D_weights", "StatefulPartitionedCall/ssd_mobile_net_v2fpn_keras_feature_extractor/model/block_7_project/Conv2D_bn_offset"], "device": "/device:CPU:0", "attr": {"fused_ops": {"list": {"s": ["Qmlhc0FkZA=="]}}, "dilations": {"list": {"i": ["1", "1", "1", "1"]}}, "epsilon": {"f": 0.0}, "num_args": {"i": "1"}, "explicit_paddings": {"list": {}}, "padding": {"s": "U0FNRQ=="}, "strides": {"list": {"i": ["1", "1", "1", "1"]}}, "use_cudnn_on_gpu": {"b": true}, "T": {"type": "DT_FLOAT"}, "data_format": {"s": "TkhXQw=="}}}, {"name": "StatefulPartitionedCall/ssd_mobile_net_v2fpn_keras_feature_extractor/model/block_7_add/add", "op": "AddV2", "input": ["StatefulPartitionedCall/ssd_mobile_net_v2fpn_keras_feature_extractor/model/block_6_project_BN/FusedBatchNormV3", "StatefulPartitionedCall/ssd_mobile_net_v2fpn_keras_feature_extractor/model/block_7_project_BN/FusedBatchNormV3"], "attr": {"T": {"type": "DT_FLOAT"}}}, {"name": "StatefulPartitionedCall/ssd_mobile_net_v2fpn_keras_feature_extractor/model/block_8_expand_relu/Relu6", "op": "_FusedConv2D", "input": ["StatefulPartitionedCall/ssd_mobile_net_v2fpn_keras_feature_extractor/model/block_7_add/add", "StatefulPartitionedCall/ssd_mobile_net_v2fpn_keras_feature_extractor/model/block_8_expand/Conv2D_weights", "StatefulPartitionedCall/ssd_mobile_net_v2fpn_keras_feature_extractor/model/block_8_expand/Conv2D_bn_offset"], "device": "/device:CPU:0", "attr": {"epsilon": {"f": 0.0}, "data_format": {"s": "TkhXQw=="}, "strides": {"list": {"i": ["1", "1", "1", "1"]}}, "dilations": {"list": {"i": ["1", "1", "1", "1"]}}, "padding": {"s": "U0FNRQ=="}, "explicit_paddings": {"list": {}}, "use_cudnn_on_gpu": {"b": true}, "T": {"type": "DT_FLOAT"}, "fused_ops": {"list": {"s": ["Qmlhc0FkZA==", "UmVsdTY="]}}, "num_args": {"i": "1"}}}, {"name": "StatefulPartitionedCall/ssd_mobile_net_v2fpn_keras_feature_extractor/model/block_8_depthwise/depthwise", "op": "FusedDepthwiseConv2dNative", "input": ["StatefulPartitionedCall/ssd_mobile_net_v2fpn_keras_feature_extractor/model/block_8_expand_relu/Relu6", "StatefulPartitionedCall/ssd_mobile_net_v2fpn_keras_feature_extractor/model/block_8_depthwise/depthwise_weights", "StatefulPartitionedCall/ssd_mobile_net_v2fpn_keras_feature_extractor/model/block_8_depthwise/depthwise_bn_offset"], "attr": {"fused_ops": {"list": {"s": ["Qmlhc0FkZA==", "UmVsdTY="]}}, "data_format": {"s": "TkhXQw=="}, "dilations": {"list": {"i": ["1", "1", "1", "1"]}}, "num_args": {"i": "1"}, "T": {"type": "DT_FLOAT"}, "explicit_paddings": {"list": {}}, "strides": {"list": {"i": ["1", "1", "1", "1"]}}, "padding": {"s": "U0FNRQ=="}}}, {"name": "StatefulPartitionedCall/ssd_mobile_net_v2fpn_keras_feature_extractor/model/block_8_project_BN/FusedBatchNormV3", "op": "_FusedConv2D", "input": ["StatefulPartitionedCall/ssd_mobile_net_v2fpn_keras_feature_extractor/model/block_8_depthwise/depthwise", "StatefulPartitionedCall/ssd_mobile_net_v2fpn_keras_feature_extractor/model/block_8_project/Conv2D_weights", "StatefulPartitionedCall/ssd_mobile_net_v2fpn_keras_feature_extractor/model/block_8_project/Conv2D_bn_offset"], "device": "/device:CPU:0", "attr": {"data_format": {"s": "TkhXQw=="}, "strides": {"list": {"i": ["1", "1", "1", "1"]}}, "explicit_paddings": {"list": {}}, "fused_ops": {"list": {"s": ["Qmlhc0FkZA=="]}}, "epsilon": {"f": 0.0}, "use_cudnn_on_gpu": {"b": true}, "dilations": {"list": {"i": ["1", "1", "1", "1"]}}, "T": {"type": "DT_FLOAT"}, "padding": {"s": "U0FNRQ=="}, "num_args": {"i": "1"}}}, {"name": "StatefulPartitionedCall/ssd_mobile_net_v2fpn_keras_feature_extractor/model/block_8_add/add", "op": "AddV2", "input": ["StatefulPartitionedCall/ssd_mobile_net_v2fpn_keras_feature_extractor/model/block_7_add/add", "StatefulPartitionedCall/ssd_mobile_net_v2fpn_keras_feature_extractor/model/block_8_project_BN/FusedBatchNormV3"], "attr": {"T": {"type": "DT_FLOAT"}}}, {"name": "StatefulPartitionedCall/ssd_mobile_net_v2fpn_keras_feature_extractor/model/block_9_expand_relu/Relu6", "op": "_FusedConv2D", "input": ["StatefulPartitionedCall/ssd_mobile_net_v2fpn_keras_feature_extractor/model/block_8_add/add", "StatefulPartitionedCall/ssd_mobile_net_v2fpn_keras_feature_extractor/model/block_9_expand/Conv2D_weights", "StatefulPartitionedCall/ssd_mobile_net_v2fpn_keras_feature_extractor/model/block_9_expand/Conv2D_bn_offset"], "device": "/device:CPU:0", "attr": {"padding": {"s": "U0FNRQ=="}, "use_cudnn_on_gpu": {"b": true}, "T": {"type": "DT_FLOAT"}, "fused_ops": {"list": {"s": ["Qmlhc0FkZA==", "UmVsdTY="]}}, "dilations": {"list": {"i": ["1", "1", "1", "1"]}}, "strides": {"list": {"i": ["1", "1", "1", "1"]}}, "epsilon": {"f": 0.0}, "num_args": {"i": "1"}, "explicit_paddings": {"list": {}}, "data_format": {"s": "TkhXQw=="}}}, {"name": "StatefulPartitionedCall/ssd_mobile_net_v2fpn_keras_feature_extractor/model/block_9_depthwise/depthwise", "op": "FusedDepthwiseConv2dNative", "input": ["StatefulPartitionedCall/ssd_mobile_net_v2fpn_keras_feature_extractor/model/block_9_expand_relu/Relu6", "StatefulPartitionedCall/ssd_mobile_net_v2fpn_keras_feature_extractor/model/block_9_depthwise/depthwise_weights", "StatefulPartitionedCall/ssd_mobile_net_v2fpn_keras_feature_extractor/model/block_9_depthwise/depthwise_bn_offset"], "attr": {"num_args": {"i": "1"}, "dilations": {"list": {"i": ["1", "1", "1", "1"]}}, "fused_ops": {"list": {"s": ["Qmlhc0FkZA==", "UmVsdTY="]}}, "T": {"type": "DT_FLOAT"}, "explicit_paddings": {"list": {}}, "padding": {"s": "U0FNRQ=="}, "strides": {"list": {"i": ["1", "1", "1", "1"]}}, "data_format": {"s": "TkhXQw=="}}}, {"name": "StatefulPartitionedCall/ssd_mobile_net_v2fpn_keras_feature_extractor/model/block_9_project_BN/FusedBatchNormV3", "op": "_FusedConv2D", "input": ["StatefulPartitionedCall/ssd_mobile_net_v2fpn_keras_feature_extractor/model/block_9_depthwise/depthwise", "StatefulPartitionedCall/ssd_mobile_net_v2fpn_keras_feature_extractor/model/block_9_project/Conv2D_weights", "StatefulPartitionedCall/ssd_mobile_net_v2fpn_keras_feature_extractor/model/block_9_project/Conv2D_bn_offset"], "device": "/device:CPU:0", "attr": {"T": {"type": "DT_FLOAT"}, "num_args": {"i": "1"}, "explicit_paddings": {"list": {}}, "fused_ops": {"list": {"s": ["Qmlhc0FkZA=="]}}, "dilations": {"list": {"i": ["1", "1", "1", "1"]}}, "data_format": {"s": "TkhXQw=="}, "padding": {"s": "U0FNRQ=="}, "use_cudnn_on_gpu": {"b": true}, "epsilon": {"f": 0.0}, "strides": {"list": {"i": ["1", "1", "1", "1"]}}}}, {"name": "StatefulPartitionedCall/ssd_mobile_net_v2fpn_keras_feature_extractor/model/block_9_add/add", "op": "AddV2", "input": ["StatefulPartitionedCall/ssd_mobile_net_v2fpn_keras_feature_extractor/model/block_8_add/add", "StatefulPartitionedCall/ssd_mobile_net_v2fpn_keras_feature_extractor/model/block_9_project_BN/FusedBatchNormV3"], "attr": {"T": {"type": "DT_FLOAT"}}}, {"name": "StatefulPartitionedCall/ssd_mobile_net_v2fpn_keras_feature_extractor/model/block_10_expand_relu/Relu6", "op": "_FusedConv2D", "input": ["StatefulPartitionedCall/ssd_mobile_net_v2fpn_keras_feature_extractor/model/block_9_add/add", "StatefulPartitionedCall/ssd_mobile_net_v2fpn_keras_feature_extractor/model/block_10_expand/Conv2D_weights", "StatefulPartitionedCall/ssd_mobile_net_v2fpn_keras_feature_extractor/model/block_10_expand/Conv2D_bn_offset"], "device": "/device:CPU:0", "attr": {"explicit_paddings": {"list": {}}, "dilations": {"list": {"i": ["1", "1", "1", "1"]}}, "data_format": {"s": "TkhXQw=="}, "use_cudnn_on_gpu": {"b": true}, "T": {"type": "DT_FLOAT"}, "num_args": {"i": "1"}, "padding": {"s": "U0FNRQ=="}, "epsilon": {"f": 0.0}, "strides": {"list": {"i": ["1", "1", "1", "1"]}}, "fused_ops": {"list": {"s": ["Qmlhc0FkZA==", "UmVsdTY="]}}}}, {"name": "StatefulPartitionedCall/ssd_mobile_net_v2fpn_keras_feature_extractor/model/block_10_depthwise/depthwise", "op": "FusedDepthwiseConv2dNative", "input": ["StatefulPartitionedCall/ssd_mobile_net_v2fpn_keras_feature_extractor/model/block_10_expand_relu/Relu6", "StatefulPartitionedCall/ssd_mobile_net_v2fpn_keras_feature_extractor/model/block_10_depthwise/depthwise_weights", "StatefulPartitionedCall/ssd_mobile_net_v2fpn_keras_feature_extractor/model/block_10_depthwise/depthwise_bn_offset"], "attr": {"data_format": {"s": "TkhXQw=="}, "num_args": {"i": "1"}, "dilations": {"list": {"i": ["1", "1", "1", "1"]}}, "strides": {"list": {"i": ["1", "1", "1", "1"]}}, "fused_ops": {"list": {"s": ["Qmlhc0FkZA==", "UmVsdTY="]}}, "padding": {"s": "U0FNRQ=="}, "explicit_paddings": {"list": {}}, "T": {"type": "DT_FLOAT"}}}, {"name": "StatefulPartitionedCall/ssd_mobile_net_v2fpn_keras_feature_extractor/model/block_10_project_BN/FusedBatchNormV3", "op": "_FusedConv2D", "input": ["StatefulPartitionedCall/ssd_mobile_net_v2fpn_keras_feature_extractor/model/block_10_depthwise/depthwise", "StatefulPartitionedCall/ssd_mobile_net_v2fpn_keras_feature_extractor/model/block_10_project/Conv2D_weights", "StatefulPartitionedCall/ssd_mobile_net_v2fpn_keras_feature_extractor/model/block_10_project/Conv2D_bn_offset"], "device": "/device:CPU:0", "attr": {"fused_ops": {"list": {"s": ["Qmlhc0FkZA=="]}}, "strides": {"list": {"i": ["1", "1", "1", "1"]}}, "padding": {"s": "U0FNRQ=="}, "epsilon": {"f": 0.0}, "explicit_paddings": {"list": {}}, "dilations": {"list": {"i": ["1", "1", "1", "1"]}}, "use_cudnn_on_gpu": {"b": true}, "data_format": {"s": "TkhXQw=="}, "T": {"type": "DT_FLOAT"}, "num_args": {"i": "1"}}}, {"name": "StatefulPartitionedCall/ssd_mobile_net_v2fpn_keras_feature_extractor/model/block_11_expand_relu/Relu6", "op": "_FusedConv2D", "input": ["StatefulPartitionedCall/ssd_mobile_net_v2fpn_keras_feature_extractor/model/block_10_project_BN/FusedBatchNormV3", "StatefulPartitionedCall/ssd_mobile_net_v2fpn_keras_feature_extractor/model/block_11_expand/Conv2D_weights", "StatefulPartitionedCall/ssd_mobile_net_v2fpn_keras_feature_extractor/model/block_11_expand/Conv2D_bn_offset"], "device": "/device:CPU:0", "attr": {"epsilon": {"f": 0.0}, "data_format": {"s": "TkhXQw=="}, "fused_ops": {"list": {"s": ["Qmlhc0FkZA==", "UmVsdTY="]}}, "padding": {"s": "U0FNRQ=="}, "T": {"type": "DT_FLOAT"}, "strides": {"list": {"i": ["1", "1", "1", "1"]}}, "num_args": {"i": "1"}, "dilations": {"list": {"i": ["1", "1", "1", "1"]}}, "explicit_paddings": {"list": {}}, "use_cudnn_on_gpu": {"b": true}}}, {"name": "StatefulPartitionedCall/ssd_mobile_net_v2fpn_keras_feature_extractor/model/block_11_depthwise/depthwise", "op": "FusedDepthwiseConv2dNative", "input": ["StatefulPartitionedCall/ssd_mobile_net_v2fpn_keras_feature_extractor/model/block_11_expand_relu/Relu6", "StatefulPartitionedCall/ssd_mobile_net_v2fpn_keras_feature_extractor/model/block_11_depthwise/depthwise_weights", "StatefulPartitionedCall/ssd_mobile_net_v2fpn_keras_feature_extractor/model/block_11_depthwise/depthwise_bn_offset"], "attr": {"data_format": {"s": "TkhXQw=="}, "padding": {"s": "U0FNRQ=="}, "num_args": {"i": "1"}, "dilations": {"list": {"i": ["1", "1", "1", "1"]}}, "fused_ops": {"list": {"s": ["Qmlhc0FkZA==", "UmVsdTY="]}}, "T": {"type": "DT_FLOAT"}, "explicit_paddings": {"list": {}}, "strides": {"list": {"i": ["1", "1", "1", "1"]}}}}, {"name": "StatefulPartitionedCall/ssd_mobile_net_v2fpn_keras_feature_extractor/model/block_11_project_BN/FusedBatchNormV3", "op": "_FusedConv2D", "input": ["StatefulPartitionedCall/ssd_mobile_net_v2fpn_keras_feature_extractor/model/block_11_depthwise/depthwise", "StatefulPartitionedCall/ssd_mobile_net_v2fpn_keras_feature_extractor/model/block_11_project/Conv2D_weights", "StatefulPartitionedCall/ssd_mobile_net_v2fpn_keras_feature_extractor/model/block_11_project/Conv2D_bn_offset"], "device": "/device:CPU:0", "attr": {"strides": {"list": {"i": ["1", "1", "1", "1"]}}, "explicit_paddings": {"list": {}}, "epsilon": {"f": 0.0}, "use_cudnn_on_gpu": {"b": true}, "fused_ops": {"list": {"s": ["Qmlhc0FkZA=="]}}, "T": {"type": "DT_FLOAT"}, "padding": {"s": "U0FNRQ=="}, "data_format": {"s": "TkhXQw=="}, "dilations": {"list": {"i": ["1", "1", "1", "1"]}}, "num_args": {"i": "1"}}}, {"name": "StatefulPartitionedCall/ssd_mobile_net_v2fpn_keras_feature_extractor/model/block_11_add/add", "op": "AddV2", "input": ["StatefulPartitionedCall/ssd_mobile_net_v2fpn_keras_feature_extractor/model/block_10_project_BN/FusedBatchNormV3", "StatefulPartitionedCall/ssd_mobile_net_v2fpn_keras_feature_extractor/model/block_11_project_BN/FusedBatchNormV3"], "attr": {"T": {"type": "DT_FLOAT"}}}, {"name": "StatefulPartitionedCall/ssd_mobile_net_v2fpn_keras_feature_extractor/model/block_12_expand_relu/Relu6", "op": "_FusedConv2D", "input": ["StatefulPartitionedCall/ssd_mobile_net_v2fpn_keras_feature_extractor/model/block_11_add/add", "StatefulPartitionedCall/ssd_mobile_net_v2fpn_keras_feature_extractor/model/block_12_expand/Conv2D_weights", "StatefulPartitionedCall/ssd_mobile_net_v2fpn_keras_feature_extractor/model/block_12_expand/Conv2D_bn_offset"], "device": "/device:CPU:0", "attr": {"fused_ops": {"list": {"s": ["Qmlhc0FkZA==", "UmVsdTY="]}}, "T": {"type": "DT_FLOAT"}, "explicit_paddings": {"list": {}}, "dilations": {"list": {"i": ["1", "1", "1", "1"]}}, "epsilon": {"f": 0.0}, "data_format": {"s": "TkhXQw=="}, "num_args": {"i": "1"}, "strides": {"list": {"i": ["1", "1", "1", "1"]}}, "padding": {"s": "U0FNRQ=="}, "use_cudnn_on_gpu": {"b": true}}}, {"name": "StatefulPartitionedCall/ssd_mobile_net_v2fpn_keras_feature_extractor/model/block_12_depthwise/depthwise", "op": "FusedDepthwiseConv2dNative", "input": ["StatefulPartitionedCall/ssd_mobile_net_v2fpn_keras_feature_extractor/model/block_12_expand_relu/Relu6", "StatefulPartitionedCall/ssd_mobile_net_v2fpn_keras_feature_extractor/model/block_12_depthwise/depthwise_weights", "StatefulPartitionedCall/ssd_mobile_net_v2fpn_keras_feature_extractor/model/block_12_depthwise/depthwise_bn_offset"], "attr": {"padding": {"s": "U0FNRQ=="}, "num_args": {"i": "1"}, "explicit_paddings": {"list": {}}, "dilations": {"list": {"i": ["1", "1", "1", "1"]}}, "fused_ops": {"list": {"s": ["Qmlhc0FkZA==", "UmVsdTY="]}}, "T": {"type": "DT_FLOAT"}, "strides": {"list": {"i": ["1", "1", "1", "1"]}}, "data_format": {"s": "TkhXQw=="}}}, {"name": "StatefulPartitionedCall/ssd_mobile_net_v2fpn_keras_feature_extractor/model/block_12_project_BN/FusedBatchNormV3", "op": "_FusedConv2D", "input": ["StatefulPartitionedCall/ssd_mobile_net_v2fpn_keras_feature_extractor/model/block_12_depthwise/depthwise", "StatefulPartitionedCall/ssd_mobile_net_v2fpn_keras_feature_extractor/model/block_12_project/Conv2D_weights", "StatefulPartitionedCall/ssd_mobile_net_v2fpn_keras_feature_extractor/model/block_12_project/Conv2D_bn_offset"], "device": "/device:CPU:0", "attr": {"strides": {"list": {"i": ["1", "1", "1", "1"]}}, "data_format": {"s": "TkhXQw=="}, "use_cudnn_on_gpu": {"b": true}, "fused_ops": {"list": {"s": ["Qmlhc0FkZA=="]}}, "epsilon": {"f": 0.0}, "T": {"type": "DT_FLOAT"}, "explicit_paddings": {"list": {}}, "dilations": {"list": {"i": ["1", "1", "1", "1"]}}, "padding": {"s": "U0FNRQ=="}, "num_args": {"i": "1"}}}, {"name": "StatefulPartitionedCall/ssd_mobile_net_v2fpn_keras_feature_extractor/model/block_12_add/add", "op": "AddV2", "input": ["StatefulPartitionedCall/ssd_mobile_net_v2fpn_keras_feature_extractor/model/block_11_add/add", "StatefulPartitionedCall/ssd_mobile_net_v2fpn_keras_feature_extractor/model/block_12_project_BN/FusedBatchNormV3"], "attr": {"T": {"type": "DT_FLOAT"}}}, {"name": "StatefulPartitionedCall/ssd_mobile_net_v2fpn_keras_feature_extractor/FeatureMaps/top_down/projection_2/BiasAdd", "op": "_FusedConv2D", "input": ["StatefulPartitionedCall/ssd_mobile_net_v2fpn_keras_feature_extractor/model/block_12_add/add", "StatefulPartitionedCall/ssd_mobile_net_v2fpn_keras_feature_extractor/FeatureMaps/top_down/projection_2/Conv2D/ReadVariableOp", "StatefulPartitionedCall/ssd_mobile_net_v2fpn_keras_feature_extractor/FeatureMaps/top_down/projection_2/BiasAdd/ReadVariableOp"], "device": "/device:CPU:0", "attr": {"epsilon": {"f": 0.0}, "fused_ops": {"list": {"s": ["Qmlhc0FkZA=="]}}, "padding": {"s": "U0FNRQ=="}, "num_args": {"i": "1"}, "data_format": {"s": "TkhXQw=="}, "strides": {"list": {"i": ["1", "1", "1", "1"]}}, "T": {"type": "DT_FLOAT"}, "explicit_paddings": {"list": {}}, "dilations": {"list": {"i": ["1", "1", "1", "1"]}}, "use_cudnn_on_gpu": {"b": true}}}, {"name": "StatefulPartitionedCall/ssd_mobile_net_v2fpn_keras_feature_extractor/model/block_13_expand_relu/Relu6", "op": "_FusedConv2D", "input": ["StatefulPartitionedCall/ssd_mobile_net_v2fpn_keras_feature_extractor/model/block_12_add/add", "StatefulPartitionedCall/ssd_mobile_net_v2fpn_keras_feature_extractor/model/block_13_expand/Conv2D_weights", "StatefulPartitionedCall/ssd_mobile_net_v2fpn_keras_feature_extractor/model/block_13_expand/Conv2D_bn_offset"], "device": "/device:CPU:0", "attr": {"epsilon": {"f": 0.0}, "use_cudnn_on_gpu": {"b": true}, "fused_ops": {"list": {"s": ["Qmlhc0FkZA==", "UmVsdTY="]}}, "strides": {"list": {"i": ["1", "1", "1", "1"]}}, "padding": {"s": "U0FNRQ=="}, "explicit_paddings": {"list": {}}, "dilations": {"list": {"i": ["1", "1", "1", "1"]}}, "num_args": {"i": "1"}, "T": {"type": "DT_FLOAT"}, "data_format": {"s": "TkhXQw=="}}}, {"name": "StatefulPartitionedCall/ssd_mobile_net_v2fpn_keras_feature_extractor/model/block_13_depthwise/depthwise", "op": "FusedDepthwiseConv2dNative", "input": ["StatefulPartitionedCall/ssd_mobile_net_v2fpn_keras_feature_extractor/model/block_13_expand_relu/Relu6", "StatefulPartitionedCall/ssd_mobile_net_v2fpn_keras_feature_extractor/model/block_13_depthwise/depthwise_weights", "StatefulPartitionedCall/ssd_mobile_net_v2fpn_keras_feature_extractor/model/block_13_depthwise/depthwise_bn_offset"], "attr": {"T": {"type": "DT_FLOAT"}, "num_args": {"i": "1"}, "strides": {"list": {"i": ["1", "2", "2", "1"]}}, "padding": {"s": "U0FNRQ=="}, "fused_ops": {"list": {"s": ["Qmlhc0FkZA==", "UmVsdTY="]}}, "data_format": {"s": "TkhXQw=="}, "explicit_paddings": {"list": {}}, "dilations": {"list": {"i": ["1", "1", "1", "1"]}}}}, {"name": "StatefulPartitionedCall/ssd_mobile_net_v2fpn_keras_feature_extractor/model/block_13_project_BN/FusedBatchNormV3", "op": "_FusedConv2D", "input": ["StatefulPartitionedCall/ssd_mobile_net_v2fpn_keras_feature_extractor/model/block_13_depthwise/depthwise", "StatefulPartitionedCall/ssd_mobile_net_v2fpn_keras_feature_extractor/model/block_13_project/Conv2D_weights", "StatefulPartitionedCall/ssd_mobile_net_v2fpn_keras_feature_extractor/model/block_13_project/Conv2D_bn_offset"], "device": "/device:CPU:0", "attr": {"explicit_paddings": {"list": {}}, "fused_ops": {"list": {"s": ["Qmlhc0FkZA=="]}}, "T": {"type": "DT_FLOAT"}, "dilations": {"list": {"i": ["1", "1", "1", "1"]}}, "num_args": {"i": "1"}, "epsilon": {"f": 0.0}, "strides": {"list": {"i": ["1", "1", "1", "1"]}}, "padding": {"s": "U0FNRQ=="}, "data_format": {"s": "TkhXQw=="}, "use_cudnn_on_gpu": {"b": true}}}, {"name": "StatefulPartitionedCall/ssd_mobile_net_v2fpn_keras_feature_extractor/model/block_14_expand_relu/Relu6", "op": "_FusedConv2D", "input": ["StatefulPartitionedCall/ssd_mobile_net_v2fpn_keras_feature_extractor/model/block_13_project_BN/FusedBatchNormV3", "StatefulPartitionedCall/ssd_mobile_net_v2fpn_keras_feature_extractor/model/block_14_expand/Conv2D_weights", "StatefulPartitionedCall/ssd_mobile_net_v2fpn_keras_feature_extractor/model/block_14_expand/Conv2D_bn_offset"], "device": "/device:CPU:0", "attr": {"T": {"type": "DT_FLOAT"}, "data_format": {"s": "TkhXQw=="}, "fused_ops": {"list": {"s": ["Qmlhc0FkZA==", "UmVsdTY="]}}, "padding": {"s": "U0FNRQ=="}, "strides": {"list": {"i": ["1", "1", "1", "1"]}}, "num_args": {"i": "1"}, "explicit_paddings": {"list": {}}, "epsilon": {"f": 0.0}, "dilations": {"list": {"i": ["1", "1", "1", "1"]}}, "use_cudnn_on_gpu": {"b": true}}}, {"name": "StatefulPartitionedCall/ssd_mobile_net_v2fpn_keras_feature_extractor/model/block_14_depthwise/depthwise", "op": "FusedDepthwiseConv2dNative", "input": ["StatefulPartitionedCall/ssd_mobile_net_v2fpn_keras_feature_extractor/model/block_14_expand_relu/Relu6", "StatefulPartitionedCall/ssd_mobile_net_v2fpn_keras_feature_extractor/model/block_14_depthwise/depthwise_weights", "StatefulPartitionedCall/ssd_mobile_net_v2fpn_keras_feature_extractor/model/block_14_depthwise/depthwise_bn_offset"], "attr": {"T": {"type": "DT_FLOAT"}, "padding": {"s": "U0FNRQ=="}, "strides": {"list": {"i": ["1", "1", "1", "1"]}}, "num_args": {"i": "1"}, "dilations": {"list": {"i": ["1", "1", "1", "1"]}}, "fused_ops": {"list": {"s": ["Qmlhc0FkZA==", "UmVsdTY="]}}, "explicit_paddings": {"list": {}}, "data_format": {"s": "TkhXQw=="}}}, {"name": "StatefulPartitionedCall/ssd_mobile_net_v2fpn_keras_feature_extractor/model/block_14_project_BN/FusedBatchNormV3", "op": "_FusedConv2D", "input": ["StatefulPartitionedCall/ssd_mobile_net_v2fpn_keras_feature_extractor/model/block_14_depthwise/depthwise", "StatefulPartitionedCall/ssd_mobile_net_v2fpn_keras_feature_extractor/model/block_14_project/Conv2D_weights", "StatefulPartitionedCall/ssd_mobile_net_v2fpn_keras_feature_extractor/model/block_14_project/Conv2D_bn_offset"], "device": "/device:CPU:0", "attr": {"T": {"type": "DT_FLOAT"}, "epsilon": {"f": 0.0}, "padding": {"s": "U0FNRQ=="}, "explicit_paddings": {"list": {}}, "data_format": {"s": "TkhXQw=="}, "num_args": {"i": "1"}, "strides": {"list": {"i": ["1", "1", "1", "1"]}}, "fused_ops": {"list": {"s": ["Qmlhc0FkZA=="]}}, "use_cudnn_on_gpu": {"b": true}, "dilations": {"list": {"i": ["1", "1", "1", "1"]}}}}, {"name": "StatefulPartitionedCall/ssd_mobile_net_v2fpn_keras_feature_extractor/model/block_14_add/add", "op": "AddV2", "input": ["StatefulPartitionedCall/ssd_mobile_net_v2fpn_keras_feature_extractor/model/block_13_project_BN/FusedBatchNormV3", "StatefulPartitionedCall/ssd_mobile_net_v2fpn_keras_feature_extractor/model/block_14_project_BN/FusedBatchNormV3"], "attr": {"T": {"type": "DT_FLOAT"}}}, {"name": "StatefulPartitionedCall/ssd_mobile_net_v2fpn_keras_feature_extractor/model/block_15_expand_relu/Relu6", "op": "_FusedConv2D", "input": ["StatefulPartitionedCall/ssd_mobile_net_v2fpn_keras_feature_extractor/model/block_14_add/add", "StatefulPartitionedCall/ssd_mobile_net_v2fpn_keras_feature_extractor/model/block_15_expand/Conv2D_weights", "StatefulPartitionedCall/ssd_mobile_net_v2fpn_keras_feature_extractor/model/block_15_expand/Conv2D_bn_offset"], "device": "/device:CPU:0", "attr": {"padding": {"s": "U0FNRQ=="}, "num_args": {"i": "1"}, "explicit_paddings": {"list": {}}, "use_cudnn_on_gpu": {"b": true}, "data_format": {"s": "TkhXQw=="}, "strides": {"list": {"i": ["1", "1", "1", "1"]}}, "fused_ops": {"list": {"s": ["Qmlhc0FkZA==", "UmVsdTY="]}}, "dilations": {"list": {"i": ["1", "1", "1", "1"]}}, "T": {"type": "DT_FLOAT"}, "epsilon": {"f": 0.0}}}, {"name": "StatefulPartitionedCall/ssd_mobile_net_v2fpn_keras_feature_extractor/model/block_15_depthwise/depthwise", "op": "FusedDepthwiseConv2dNative", "input": ["StatefulPartitionedCall/ssd_mobile_net_v2fpn_keras_feature_extractor/model/block_15_expand_relu/Relu6", "StatefulPartitionedCall/ssd_mobile_net_v2fpn_keras_feature_extractor/model/block_15_depthwise/depthwise_weights", "StatefulPartitionedCall/ssd_mobile_net_v2fpn_keras_feature_extractor/model/block_15_depthwise/depthwise_bn_offset"], "attr": {"fused_ops": {"list": {"s": ["Qmlhc0FkZA==", "UmVsdTY="]}}, "T": {"type": "DT_FLOAT"}, "padding": {"s": "U0FNRQ=="}, "data_format": {"s": "TkhXQw=="}, "strides": {"list": {"i": ["1", "1", "1", "1"]}}, "explicit_paddings": {"list": {}}, "dilations": {"list": {"i": ["1", "1", "1", "1"]}}, "num_args": {"i": "1"}}}, {"name": "StatefulPartitionedCall/ssd_mobile_net_v2fpn_keras_feature_extractor/model/block_15_project_BN/FusedBatchNormV3", "op": "_FusedConv2D", "input": ["StatefulPartitionedCall/ssd_mobile_net_v2fpn_keras_feature_extractor/model/block_15_depthwise/depthwise", "StatefulPartitionedCall/ssd_mobile_net_v2fpn_keras_feature_extractor/model/block_15_project/Conv2D_weights", "StatefulPartitionedCall/ssd_mobile_net_v2fpn_keras_feature_extractor/model/block_15_project/Conv2D_bn_offset"], "device": "/device:CPU:0", "attr": {"strides": {"list": {"i": ["1", "1", "1", "1"]}}, "data_format": {"s": "TkhXQw=="}, "num_args": {"i": "1"}, "T": {"type": "DT_FLOAT"}, "epsilon": {"f": 0.0}, "use_cudnn_on_gpu": {"b": true}, "padding": {"s": "U0FNRQ=="}, "fused_ops": {"list": {"s": ["Qmlhc0FkZA=="]}}, "dilations": {"list": {"i": ["1", "1", "1", "1"]}}, "explicit_paddings": {"list": {}}}}, {"name": "StatefulPartitionedCall/ssd_mobile_net_v2fpn_keras_feature_extractor/model/block_15_add/add", "op": "AddV2", "input": ["StatefulPartitionedCall/ssd_mobile_net_v2fpn_keras_feature_extractor/model/block_14_add/add", "StatefulPartitionedCall/ssd_mobile_net_v2fpn_keras_feature_extractor/model/block_15_project_BN/FusedBatchNormV3"], "attr": {"T": {"type": "DT_FLOAT"}}}, {"name": "StatefulPartitionedCall/ssd_mobile_net_v2fpn_keras_feature_extractor/model/block_16_expand_relu/Relu6", "op": "_FusedConv2D", "input": ["StatefulPartitionedCall/ssd_mobile_net_v2fpn_keras_feature_extractor/model/block_15_add/add", "StatefulPartitionedCall/ssd_mobile_net_v2fpn_keras_feature_extractor/model/block_16_expand/Conv2D_weights", "StatefulPartitionedCall/ssd_mobile_net_v2fpn_keras_feature_extractor/model/block_16_expand/Conv2D_bn_offset"], "device": "/device:CPU:0", "attr": {"padding": {"s": "U0FNRQ=="}, "fused_ops": {"list": {"s": ["Qmlhc0FkZA==", "UmVsdTY="]}}, "strides": {"list": {"i": ["1", "1", "1", "1"]}}, "epsilon": {"f": 0.0}, "explicit_paddings": {"list": {}}, "num_args": {"i": "1"}, "use_cudnn_on_gpu": {"b": true}, "dilations": {"list": {"i": ["1", "1", "1", "1"]}}, "T": {"type": "DT_FLOAT"}, "data_format": {"s": "TkhXQw=="}}}, {"name": "StatefulPartitionedCall/ssd_mobile_net_v2fpn_keras_feature_extractor/model/block_16_depthwise/depthwise", "op": "FusedDepthwiseConv2dNative", "input": ["StatefulPartitionedCall/ssd_mobile_net_v2fpn_keras_feature_extractor/model/block_16_expand_relu/Relu6", "StatefulPartitionedCall/ssd_mobile_net_v2fpn_keras_feature_extractor/model/block_16_depthwise/depthwise_weights", "StatefulPartitionedCall/ssd_mobile_net_v2fpn_keras_feature_extractor/model/block_16_depthwise/depthwise_bn_offset"], "attr": {"data_format": {"s": "TkhXQw=="}, "fused_ops": {"list": {"s": ["Qmlhc0FkZA==", "UmVsdTY="]}}, "strides": {"list": {"i": ["1", "1", "1", "1"]}}, "T": {"type": "DT_FLOAT"}, "padding": {"s": "U0FNRQ=="}, "dilations": {"list": {"i": ["1", "1", "1", "1"]}}, "num_args": {"i": "1"}, "explicit_paddings": {"list": {}}}}, {"name": "StatefulPartitionedCall/ssd_mobile_net_v2fpn_keras_feature_extractor/model/block_16_project_BN/FusedBatchNormV3", "op": "_FusedConv2D", "input": ["StatefulPartitionedCall/ssd_mobile_net_v2fpn_keras_feature_extractor/model/block_16_depthwise/depthwise", "StatefulPartitionedCall/ssd_mobile_net_v2fpn_keras_feature_extractor/model/block_16_project/Conv2D_weights", "StatefulPartitionedCall/ssd_mobile_net_v2fpn_keras_feature_extractor/model/block_16_project/Conv2D_bn_offset"], "device": "/device:CPU:0", "attr": {"num_args": {"i": "1"}, "T": {"type": "DT_FLOAT"}, "epsilon": {"f": 0.0}, "dilations": {"list": {"i": ["1", "1", "1", "1"]}}, "padding": {"s": "U0FNRQ=="}, "use_cudnn_on_gpu": {"b": true}, "data_format": {"s": "TkhXQw=="}, "strides": {"list": {"i": ["1", "1", "1", "1"]}}, "explicit_paddings": {"list": {}}, "fused_ops": {"list": {"s": ["Qmlhc0FkZA=="]}}}}, {"name": "StatefulPartitionedCall/ssd_mobile_net_v2fpn_keras_feature_extractor/model/out_relu/Relu6", "op": "_FusedConv2D", "input": ["StatefulPartitionedCall/ssd_mobile_net_v2fpn_keras_feature_extractor/model/block_16_project_BN/FusedBatchNormV3", "StatefulPartitionedCall/ssd_mobile_net_v2fpn_keras_feature_extractor/model/Conv_1/Conv2D_weights", "StatefulPartitionedCall/ssd_mobile_net_v2fpn_keras_feature_extractor/model/Conv_1/Conv2D_bn_offset"], "device": "/device:CPU:0", "attr": {"strides": {"list": {"i": ["1", "1", "1", "1"]}}, "use_cudnn_on_gpu": {"b": true}, "dilations": {"list": {"i": ["1", "1", "1", "1"]}}, "padding": {"s": "U0FNRQ=="}, "explicit_paddings": {"list": {}}, "fused_ops": {"list": {"s": ["Qmlhc0FkZA==", "UmVsdTY="]}}, "epsilon": {"f": 0.0}, "data_format": {"s": "TkhXQw=="}, "num_args": {"i": "1"}, "T": {"type": "DT_FLOAT"}}}, {"name": "StatefulPartitionedCall/ssd_mobile_net_v2fpn_keras_feature_extractor/FeatureMaps/top_down/projection_3/BiasAdd", "op": "_FusedConv2D", "input": ["StatefulPartitionedCall/ssd_mobile_net_v2fpn_keras_feature_extractor/model/out_relu/Relu6", "StatefulPartitionedCall/ssd_mobile_net_v2fpn_keras_feature_extractor/FeatureMaps/top_down/projection_3/Conv2D/ReadVariableOp", "StatefulPartitionedCall/ssd_mobile_net_v2fpn_keras_feature_extractor/FeatureMaps/top_down/projection_3/BiasAdd/ReadVariableOp"], "device": "/device:CPU:0", "attr": {"epsilon": {"f": 0.0}, "explicit_paddings": {"list": {}}, "strides": {"list": {"i": ["1", "1", "1", "1"]}}, "T": {"type": "DT_FLOAT"}, "num_args": {"i": "1"}, "fused_ops": {"list": {"s": ["Qmlhc0FkZA=="]}}, "dilations": {"list": {"i": ["1", "1", "1", "1"]}}, "data_format": {"s": "TkhXQw=="}, "use_cudnn_on_gpu": {"b": true}, "padding": {"s": "U0FNRQ=="}}}, {"name": "StatefulPartitionedCall/ssd_mobile_net_v2fpn_keras_feature_extractor/FeatureMaps/top_down/nearest_neighbor_upsampling/nearest_neighbor_upsampling/w_stack", "op": "Pack", "input": ["StatefulPartitionedCall/ssd_mobile_net_v2fpn_keras_feature_extractor/FeatureMaps/top_down/projection_3/BiasAdd", "StatefulPartitionedCall/ssd_mobile_net_v2fpn_keras_feature_extractor/FeatureMaps/top_down/projection_3/BiasAdd"], "attr": {"axis": {"i": "3"}, "T": {"type": "DT_FLOAT"}, "N": {"i": "2"}}}, {"name": "StatefulPartitionedCall/ssd_mobile_net_v2fpn_keras_feature_extractor/FeatureMaps/top_down/nearest_neighbor_upsampling/nearest_neighbor_upsampling/Shape", "op": "Shape", "input": ["StatefulPartitionedCall/ssd_mobile_net_v2fpn_keras_feature_extractor/FeatureMaps/top_down/projection_3/BiasAdd"], "attr": {"out_type": {"type": "DT_INT32"}, "T": {"type": "DT_FLOAT"}}}, {"name": "Identity_2", "op": "Identity", "input": ["StatefulPartitionedCall/ssd_mobile_net_v2fpn_keras_feature_extractor/FeatureMaps/top_down/projection_3/BiasAdd"], "attr": {"T": {"type": "DT_FLOAT"}}}, {"name": "StatefulPartitionedCall/ssd_mobile_net_v2fpn_keras_feature_extractor/bottom_up_Conv2d_20_depthwise_conv/separable_conv2d/depthwise", "op": "DepthwiseConv2dNative", "input": ["StatefulPartitionedCall/ssd_mobile_net_v2fpn_keras_feature_extractor/FeatureMaps/top_down/projection_3/BiasAdd", "StatefulPartitionedCall/ssd_mobile_net_v2fpn_keras_feature_extractor/bottom_up_Conv2d_20_depthwise_conv/separable_conv2d/ReadVariableOp"], "attr": {"explicit_paddings": {"list": {}}, "strides": {"list": {"i": ["1", "2", "2", "1"]}}, "padding": {"s": "U0FNRQ=="}, "T": {"type": "DT_FLOAT"}, "data_format": {"s": "TkhXQw=="}, "dilations": {"list": {"i": ["1", "1", "1", "1"]}}}}, {"name": "StatefulPartitionedCall/ssd_mobile_net_v2fpn_keras_feature_extractor/FeatureMaps/top_down/nearest_neighbor_upsampling/nearest_neighbor_upsampling/h_stack", "op": "Pack", "input": ["StatefulPartitionedCall/ssd_mobile_net_v2fpn_keras_feature_extractor/FeatureMaps/top_down/nearest_neighbor_upsampling/nearest_neighbor_upsampling/w_stack", "StatefulPartitionedCall/ssd_mobile_net_v2fpn_keras_feature_extractor/FeatureMaps/top_down/nearest_neighbor_upsampling/nearest_neighbor_upsampling/w_stack"], "attr": {"axis": {"i": "2"}, "N": {"i": "2"}, "T": {"type": "DT_FLOAT"}}}, {"name": "StatefulPartitionedCall/ssd_mobile_net_v2fpn_keras_feature_extractor/FeatureMaps/top_down/nearest_neighbor_upsampling/nearest_neighbor_upsampling/strided_slice", "op": "StridedSlice", "input": ["StatefulPartitionedCall/ssd_mobile_net_v2fpn_keras_feature_extractor/FeatureMaps/top_down/nearest_neighbor_upsampling/nearest_neighbor_upsampling/Shape", "StatefulPartitionedCall/ssd_mobile_net_v2fpn_keras_feature_extractor/FeatureMaps/top_down/nearest_neighbor_upsampling/nearest_neighbor_upsampling/strided_slice/stack", "StatefulPartitionedCall/ssd_mobile_net_v2fpn_keras_feature_extractor/FeatureMaps/top_down/nearest_neighbor_upsampling/nearest_neighbor_upsampling/strided_slice/stack_1", "StatefulPartitionedCall/ssd_mobile_net_v2fpn_keras_feature_extractor/FeatureMaps/top_down/nearest_neighbor_upsampling/nearest_neighbor_upsampling/strided_slice/stack_2"], "attr": {"new_axis_mask": {"i": "0"}, "ellipsis_mask": {"i": "0"}, "Index": {"type": "DT_INT32"}, "begin_mask": {"i": "0"}, "T": {"type": "DT_INT32"}, "end_mask": {"i": "0"}, "shrink_axis_mask": {"i": "1"}}}, {"name": "StatefulPartitionedCall/ssd_mobile_net_v2fpn_keras_feature_extractor/bottom_up_Conv2d_20/Relu6", "op": "_FusedConv2D", "input": ["StatefulPartitionedCall/ssd_mobile_net_v2fpn_keras_feature_extractor/bottom_up_Conv2d_20_depthwise_conv/separable_conv2d/depthwise", "StatefulPartitionedCall/ssd_mobile_net_v2fpn_keras_feature_extractor/bottom_up_Conv2d_20_depthwise_conv/separable_conv2d_weights", "StatefulPartitionedCall/ssd_mobile_net_v2fpn_keras_feature_extractor/bottom_up_Conv2d_20_depthwise_conv/separable_conv2d_bn_offset"], "device": "/device:CPU:0", "attr": {"T": {"type": "DT_FLOAT"}, "dilations": {"list": {"i": ["1", "1", "1", "1"]}}, "num_args": {"i": "1"}, "explicit_paddings": {"list": {}}, "use_cudnn_on_gpu": {"b": true}, "fused_ops": {"list": {"s": ["Qmlhc0FkZA==", "UmVsdTY="]}}, "padding": {"s": "VkFMSUQ="}, "strides": {"list": {"i": ["1", "1", "1", "1"]}}, "data_format": {"s": "TkhXQw=="}, "epsilon": {"f": 0.0}}}, {"name": "StatefulPartitionedCall/ssd_mobile_net_v2fpn_keras_feature_extractor/FeatureMaps/top_down/nearest_neighbor_upsampling/nearest_neighbor_upsampling/Reshape/shape", "op": "Pack", "input": ["StatefulPartitionedCall/ssd_mobile_net_v2fpn_keras_feature_extractor/FeatureMaps/top_down/nearest_neighbor_upsampling/nearest_neighbor_upsampling/strided_slice", "StatefulPartitionedCall/ssd_mobile_net_v2fpn_keras_feature_extractor/FeatureMaps/top_down/nearest_neighbor_upsampling/nearest_neighbor_upsampling/Reshape/shape/1", "StatefulPartitionedCall/ssd_mobile_net_v2fpn_keras_feature_extractor/FeatureMaps/top_down/nearest_neighbor_upsampling/nearest_neighbor_upsampling/Reshape/shape/2", "StatefulPartitionedCall/ssd_mobile_net_v2fpn_keras_feature_extractor/FeatureMaps/top_down/nearest_neighbor_upsampling/nearest_neighbor_upsampling/Reshape/shape/3"], "attr": {"T": {"type": "DT_INT32"}, "axis": {"i": "0"}, "N": {"i": "4"}}}, {"name": "Identity_3", "op": "Identity", "input": ["StatefulPartitionedCall/ssd_mobile_net_v2fpn_keras_feature_extractor/bottom_up_Conv2d_20/Relu6"], "attr": {"T": {"type": "DT_FLOAT"}}}, {"name": "StatefulPartitionedCall/ssd_mobile_net_v2fpn_keras_feature_extractor/bottom_up_Conv2d_21_depthwise_conv/separable_conv2d/depthwise", "op": "DepthwiseConv2dNative", "input": ["StatefulPartitionedCall/ssd_mobile_net_v2fpn_keras_feature_extractor/bottom_up_Conv2d_20/Relu6", "StatefulPartitionedCall/ssd_mobile_net_v2fpn_keras_feature_extractor/bottom_up_Conv2d_21_depthwise_conv/separable_conv2d/ReadVariableOp"], "attr": {"strides": {"list": {"i": ["1", "2", "2", "1"]}}, "data_format": {"s": "TkhXQw=="}, "dilations": {"list": {"i": ["1", "1", "1", "1"]}}, "T": {"type": "DT_FLOAT"}, "explicit_paddings": {"list": {}}, "padding": {"s": "U0FNRQ=="}}}, {"name": "StatefulPartitionedCall/ssd_mobile_net_v2fpn_keras_feature_extractor/FeatureMaps/top_down/nearest_neighbor_upsampling/nearest_neighbor_upsampling/Reshape", "op": "Reshape", "input": ["StatefulPartitionedCall/ssd_mobile_net_v2fpn_keras_feature_extractor/FeatureMaps/top_down/nearest_neighbor_upsampling/nearest_neighbor_upsampling/h_stack", "StatefulPartitionedCall/ssd_mobile_net_v2fpn_keras_feature_extractor/FeatureMaps/top_down/nearest_neighbor_upsampling/nearest_neighbor_upsampling/Reshape/shape"], "attr": {"T": {"type": "DT_FLOAT"}, "Tshape": {"type": "DT_INT32"}}}, {"name": "StatefulPartitionedCall/ssd_mobile_net_v2fpn_keras_feature_extractor/bottom_up_Conv2d_21/Relu6", "op": "_FusedConv2D", "input": ["StatefulPartitionedCall/ssd_mobile_net_v2fpn_keras_feature_extractor/bottom_up_Conv2d_21_depthwise_conv/separable_conv2d/depthwise", "StatefulPartitionedCall/ssd_mobile_net_v2fpn_keras_feature_extractor/bottom_up_Conv2d_21_depthwise_conv/separable_conv2d_weights", "StatefulPartitionedCall/ssd_mobile_net_v2fpn_keras_feature_extractor/bottom_up_Conv2d_21_depthwise_conv/separable_conv2d_bn_offset"], "device": "/device:CPU:0", "attr": {"T": {"type": "DT_FLOAT"}, "epsilon": {"f": 0.0}, "use_cudnn_on_gpu": {"b": true}, "data_format": {"s": "TkhXQw=="}, "padding": {"s": "VkFMSUQ="}, "fused_ops": {"list": {"s": ["Qmlhc0FkZA==", "UmVsdTY="]}}, "strides": {"list": {"i": ["1", "1", "1", "1"]}}, "num_args": {"i": "1"}, "dilations": {"list": {"i": ["1", "1", "1", "1"]}}, "explicit_paddings": {"list": {}}}}, {"name": "StatefulPartitionedCall/ssd_mobile_net_v2fpn_keras_feature_extractor/FeatureMaps/top_down/add", "op": "AddV2", "input": ["StatefulPartitionedCall/ssd_mobile_net_v2fpn_keras_feature_extractor/FeatureMaps/top_down/nearest_neighbor_upsampling/nearest_neighbor_upsampling/Reshape", "StatefulPartitionedCall/ssd_mobile_net_v2fpn_keras_feature_extractor/FeatureMaps/top_down/projection_2/BiasAdd"], "attr": {"T": {"type": "DT_FLOAT"}}}, {"name": "Identity_4", "op": "Identity", "input": ["StatefulPartitionedCall/ssd_mobile_net_v2fpn_keras_feature_extractor/bottom_up_Conv2d_21/Relu6"], "attr": {"T": {"type": "DT_FLOAT"}}}, {"name": "StatefulPartitionedCall/ssd_mobile_net_v2fpn_keras_feature_extractor/FeatureMaps/top_down/smoothing_2_depthwise_conv/separable_conv2d/depthwise", "op": "DepthwiseConv2dNative", "input": ["StatefulPartitionedCall/ssd_mobile_net_v2fpn_keras_feature_extractor/FeatureMaps/top_down/add", "StatefulPartitionedCall/ssd_mobile_net_v2fpn_keras_feature_extractor/FeatureMaps/top_down/smoothing_2_depthwise_conv/separable_conv2d/ReadVariableOp"], "attr": {"explicit_paddings": {"list": {}}, "T": {"type": "DT_FLOAT"}, "strides": {"list": {"i": ["1", "1", "1", "1"]}}, "data_format": {"s": "TkhXQw=="}, "dilations": {"list": {"i": ["1", "1", "1", "1"]}}, "padding": {"s": "U0FNRQ=="}}}, {"name": "StatefulPartitionedCall/ssd_mobile_net_v2fpn_keras_feature_extractor/FeatureMaps/top_down/smoothing_2/Relu6", "op": "_FusedConv2D", "input": ["StatefulPartitionedCall/ssd_mobile_net_v2fpn_keras_feature_extractor/FeatureMaps/top_down/smoothing_2_depthwise_conv/separable_conv2d/depthwise", "StatefulPartitionedCall/ssd_mobile_net_v2fpn_keras_feature_extractor/FeatureMaps/top_down/smoothing_2_depthwise_conv/separable_conv2d_weights", "StatefulPartitionedCall/ssd_mobile_net_v2fpn_keras_feature_extractor/FeatureMaps/top_down/smoothing_2_depthwise_conv/separable_conv2d_bn_offset"], "device": "/device:CPU:0", "attr": {"epsilon": {"f": 0.0}, "data_format": {"s": "TkhXQw=="}, "T": {"type": "DT_FLOAT"}, "padding": {"s": "VkFMSUQ="}, "use_cudnn_on_gpu": {"b": true}, "fused_ops": {"list": {"s": ["Qmlhc0FkZA==", "UmVsdTY="]}}, "strides": {"list": {"i": ["1", "1", "1", "1"]}}, "num_args": {"i": "1"}, "dilations": {"list": {"i": ["1", "1", "1", "1"]}}, "explicit_paddings": {"list": {}}}}, {"name": "StatefulPartitionedCall/ssd_mobile_net_v2fpn_keras_feature_extractor/FeatureMaps/top_down/nearest_neighbor_upsampling/nearest_neighbor_upsampling_1/Shape", "op": "Shape", "input": ["StatefulPartitionedCall/ssd_mobile_net_v2fpn_keras_feature_extractor/FeatureMaps/top_down/smoothing_2/Relu6"], "attr": {"T": {"type": "DT_FLOAT"}, "out_type": {"type": "DT_INT32"}}}, {"name": "Identity_1", "op": "Identity", "input": ["StatefulPartitionedCall/ssd_mobile_net_v2fpn_keras_feature_extractor/FeatureMaps/top_down/smoothing_2/Relu6"], "attr": {"T": {"type": "DT_FLOAT"}}}, {"name": "StatefulPartitionedCall/ssd_mobile_net_v2fpn_keras_feature_extractor/FeatureMaps/top_down/nearest_neighbor_upsampling/nearest_neighbor_upsampling_1/w_stack", "op": "Pack", "input": ["StatefulPartitionedCall/ssd_mobile_net_v2fpn_keras_feature_extractor/FeatureMaps/top_down/smoothing_2/Relu6", "StatefulPartitionedCall/ssd_mobile_net_v2fpn_keras_feature_extractor/FeatureMaps/top_down/smoothing_2/Relu6"], "attr": {"T": {"type": "DT_FLOAT"}, "N": {"i": "2"}, "axis": {"i": "3"}}}, {"name": "StatefulPartitionedCall/ssd_mobile_net_v2fpn_keras_feature_extractor/FeatureMaps/top_down/nearest_neighbor_upsampling/nearest_neighbor_upsampling_1/strided_slice", "op": "StridedSlice", "input": ["StatefulPartitionedCall/ssd_mobile_net_v2fpn_keras_feature_extractor/FeatureMaps/top_down/nearest_neighbor_upsampling/nearest_neighbor_upsampling_1/Shape", "StatefulPartitionedCall/ssd_mobile_net_v2fpn_keras_feature_extractor/FeatureMaps/top_down/nearest_neighbor_upsampling/nearest_neighbor_upsampling_1/strided_slice/stack", "StatefulPartitionedCall/ssd_mobile_net_v2fpn_keras_feature_extractor/FeatureMaps/top_down/nearest_neighbor_upsampling/nearest_neighbor_upsampling_1/strided_slice/stack_1", "StatefulPartitionedCall/ssd_mobile_net_v2fpn_keras_feature_extractor/FeatureMaps/top_down/nearest_neighbor_upsampling/nearest_neighbor_upsampling_1/strided_slice/stack_2"], "attr": {"T": {"type": "DT_INT32"}, "new_axis_mask": {"i": "0"}, "shrink_axis_mask": {"i": "1"}, "end_mask": {"i": "0"}, "Index": {"type": "DT_INT32"}, "ellipsis_mask": {"i": "0"}, "begin_mask": {"i": "0"}}}, {"name": "StatefulPartitionedCall/ssd_mobile_net_v2fpn_keras_feature_extractor/FeatureMaps/top_down/nearest_neighbor_upsampling/nearest_neighbor_upsampling_1/h_stack", "op": "Pack", "input": ["StatefulPartitionedCall/ssd_mobile_net_v2fpn_keras_feature_extractor/FeatureMaps/top_down/nearest_neighbor_upsampling/nearest_neighbor_upsampling_1/w_stack", "StatefulPartitionedCall/ssd_mobile_net_v2fpn_keras_feature_extractor/FeatureMaps/top_down/nearest_neighbor_upsampling/nearest_neighbor_upsampling_1/w_stack"], "attr": {"N": {"i": "2"}, "T": {"type": "DT_FLOAT"}, "axis": {"i": "2"}}}, {"name": "StatefulPartitionedCall/ssd_mobile_net_v2fpn_keras_feature_extractor/FeatureMaps/top_down/nearest_neighbor_upsampling/nearest_neighbor_upsampling_1/Reshape/shape", "op": "Pack", "input": ["StatefulPartitionedCall/ssd_mobile_net_v2fpn_keras_feature_extractor/FeatureMaps/top_down/nearest_neighbor_upsampling/nearest_neighbor_upsampling_1/strided_slice", "StatefulPartitionedCall/ssd_mobile_net_v2fpn_keras_feature_extractor/FeatureMaps/top_down/nearest_neighbor_upsampling/nearest_neighbor_upsampling_1/Reshape/shape/1", "StatefulPartitionedCall/ssd_mobile_net_v2fpn_keras_feature_extractor/FeatureMaps/top_down/nearest_neighbor_upsampling/nearest_neighbor_upsampling_1/Reshape/shape/2", "StatefulPartitionedCall/ssd_mobile_net_v2fpn_keras_feature_extractor/FeatureMaps/top_down/nearest_neighbor_upsampling/nearest_neighbor_upsampling_1/Reshape/shape/3"], "attr": {"T": {"type": "DT_INT32"}, "N": {"i": "4"}, "axis": {"i": "0"}}}, {"name": "StatefulPartitionedCall/ssd_mobile_net_v2fpn_keras_feature_extractor/FeatureMaps/top_down/nearest_neighbor_upsampling/nearest_neighbor_upsampling_1/Reshape", "op": "Reshape", "input": ["StatefulPartitionedCall/ssd_mobile_net_v2fpn_keras_feature_extractor/FeatureMaps/top_down/nearest_neighbor_upsampling/nearest_neighbor_upsampling_1/h_stack", "StatefulPartitionedCall/ssd_mobile_net_v2fpn_keras_feature_extractor/FeatureMaps/top_down/nearest_neighbor_upsampling/nearest_neighbor_upsampling_1/Reshape/shape"], "attr": {"Tshape": {"type": "DT_INT32"}, "T": {"type": "DT_FLOAT"}}}, {"name": "StatefulPartitionedCall/ssd_mobile_net_v2fpn_keras_feature_extractor/FeatureMaps/top_down/add_1", "op": "AddV2", "input": ["StatefulPartitionedCall/ssd_mobile_net_v2fpn_keras_feature_extractor/FeatureMaps/top_down/nearest_neighbor_upsampling/nearest_neighbor_upsampling_1/Reshape", "StatefulPartitionedCall/ssd_mobile_net_v2fpn_keras_feature_extractor/FeatureMaps/top_down/projection_1/BiasAdd"], "attr": {"T": {"type": "DT_FLOAT"}}}, {"name": "StatefulPartitionedCall/ssd_mobile_net_v2fpn_keras_feature_extractor/FeatureMaps/top_down/smoothing_1_depthwise_conv/separable_conv2d/depthwise", "op": "DepthwiseConv2dNative", "input": ["StatefulPartitionedCall/ssd_mobile_net_v2fpn_keras_feature_extractor/FeatureMaps/top_down/add_1", "StatefulPartitionedCall/ssd_mobile_net_v2fpn_keras_feature_extractor/FeatureMaps/top_down/smoothing_1_depthwise_conv/separable_conv2d/ReadVariableOp"], "attr": {"dilations": {"list": {"i": ["1", "1", "1", "1"]}}, "data_format": {"s": "TkhXQw=="}, "strides": {"list": {"i": ["1", "1", "1", "1"]}}, "explicit_paddings": {"list": {}}, "padding": {"s": "U0FNRQ=="}, "T": {"type": "DT_FLOAT"}}}, {"name": "StatefulPartitionedCall/ssd_mobile_net_v2fpn_keras_feature_extractor/FeatureMaps/top_down/smoothing_1/Relu6", "op": "_FusedConv2D", "input": ["StatefulPartitionedCall/ssd_mobile_net_v2fpn_keras_feature_extractor/FeatureMaps/top_down/smoothing_1_depthwise_conv/separable_conv2d/depthwise", "StatefulPartitionedCall/ssd_mobile_net_v2fpn_keras_feature_extractor/FeatureMaps/top_down/smoothing_1_depthwise_conv/separable_conv2d_weights", "StatefulPartitionedCall/ssd_mobile_net_v2fpn_keras_feature_extractor/FeatureMaps/top_down/smoothing_1_depthwise_conv/separable_conv2d_bn_offset"], "device": "/device:CPU:0", "attr": {"strides": {"list": {"i": ["1", "1", "1", "1"]}}, "dilations": {"list": {"i": ["1", "1", "1", "1"]}}, "data_format": {"s": "TkhXQw=="}, "use_cudnn_on_gpu": {"b": true}, "num_args": {"i": "1"}, "fused_ops": {"list": {"s": ["Qmlhc0FkZA==", "UmVsdTY="]}}, "epsilon": {"f": 0.0}, "T": {"type": "DT_FLOAT"}, "explicit_paddings": {"list": {}}, "padding": {"s": "VkFMSUQ="}}}, {"name": "Identity", "op": "Identity", "input": ["StatefulPartitionedCall/ssd_mobile_net_v2fpn_keras_feature_extractor/FeatureMaps/top_down/smoothing_1/Relu6"], "attr": {"T": {"type": "DT_FLOAT"}}}], "library": {}, "versions": {"producer": 716}}, "weightsManifest": [{"paths": ["group1-shard1of3.bin", "group1-shard2of3.bin", "group1-shard3of3.bin"], "weights": [{"name": "StatefulPartitionedCall/ssd_mobile_net_v2fpn_keras_feature_extractor/FeatureMaps/top_down/nearest_neighbor_upsampling/nearest_neighbor_upsampling_1/strided_slice/stack", "shape": [1], "dtype": "int32"}, {"name": "StatefulPartitionedCall/ssd_mobile_net_v2fpn_keras_feature_extractor/FeatureMaps/top_down/nearest_neighbor_upsampling/nearest_neighbor_upsampling_1/strided_slice/stack_1", "shape": [1], "dtype": "int32"}, {"name": "StatefulPartitionedCall/ssd_mobile_net_v2fpn_keras_feature_extractor/FeatureMaps/top_down/nearest_neighbor_upsampling/nearest_neighbor_upsampling_1/strided_slice/stack_2", "shape": [1], "dtype": "int32"}, {"name": "StatefulPartitionedCall/ssd_mobile_net_v2fpn_keras_feature_extractor/FeatureMaps/top_down/nearest_neighbor_upsampling/nearest_neighbor_upsampling_1/Reshape/shape/1", "shape": [], "dtype": "int32"}, {"name": "StatefulPartitionedCall/ssd_mobile_net_v2fpn_keras_feature_extractor/FeatureMaps/top_down/nearest_neighbor_upsampling/nearest_neighbor_upsampling_1/Reshape/shape/2", "shape": [], "dtype": "int32"}, {"name": "StatefulPartitionedCall/ssd_mobile_net_v2fpn_keras_feature_extractor/FeatureMaps/top_down/nearest_neighbor_upsampling/nearest_neighbor_upsampling_1/Reshape/shape/3", "shape": [], "dtype": "int32"}, {"name": "StatefulPartitionedCall/ssd_mobile_net_v2fpn_keras_feature_extractor/FeatureMaps/top_down/projection_1/Conv2D/ReadVariableOp", "shape": [1, 1, 32, 128], "dtype": "float32"}, {"name": "StatefulPartitionedCall/ssd_mobile_net_v2fpn_keras_feature_extractor/FeatureMaps/top_down/projection_1/BiasAdd/ReadVariableOp", "shape": [128], "dtype": "float32"}, {"name": "StatefulPartitionedCall/ssd_mobile_net_v2fpn_keras_feature_extractor/FeatureMaps/top_down/smoothing_1_depthwise_conv/separable_conv2d/ReadVariableOp", "shape": [3, 3, 128, 1], "dtype": "float32"}, {"name": "StatefulPartitionedCall/ssd_mobile_net_v2fpn_keras_feature_extractor/FeatureMaps/top_down/nearest_neighbor_upsampling/nearest_neighbor_upsampling/strided_slice/stack", "shape": [1], "dtype": "int32"}, {"name": "StatefulPartitionedCall/ssd_mobile_net_v2fpn_keras_feature_extractor/FeatureMaps/top_down/nearest_neighbor_upsampling/nearest_neighbor_upsampling/strided_slice/stack_1", "shape": [1], "dtype": "int32"}, {"name": "StatefulPartitionedCall/ssd_mobile_net_v2fpn_keras_feature_extractor/FeatureMaps/top_down/nearest_neighbor_upsampling/nearest_neighbor_upsampling/strided_slice/stack_2", "shape": [1], "dtype": "int32"}, {"name": "StatefulPartitionedCall/ssd_mobile_net_v2fpn_keras_feature_extractor/FeatureMaps/top_down/nearest_neighbor_upsampling/nearest_neighbor_upsampling/Reshape/shape/1", "shape": [], "dtype": "int32"}, {"name": "StatefulPartitionedCall/ssd_mobile_net_v2fpn_keras_feature_extractor/FeatureMaps/top_down/nearest_neighbor_upsampling/nearest_neighbor_upsampling/Reshape/shape/2", "shape": [], "dtype": "int32"}, {"name": "StatefulPartitionedCall/ssd_mobile_net_v2fpn_keras_feature_extractor/FeatureMaps/top_down/nearest_neighbor_upsampling/nearest_neighbor_upsampling/Reshape/shape/3", "shape": [], "dtype": "int32"}, {"name": "StatefulPartitionedCall/ssd_mobile_net_v2fpn_keras_feature_extractor/FeatureMaps/top_down/projection_2/Conv2D/ReadVariableOp", "shape": [1, 1, 96, 128], "dtype": "float32"}, {"name": "StatefulPartitionedCall/ssd_mobile_net_v2fpn_keras_feature_extractor/FeatureMaps/top_down/projection_2/BiasAdd/ReadVariableOp", "shape": [128], "dtype": "float32"}, {"name": "StatefulPartitionedCall/ssd_mobile_net_v2fpn_keras_feature_extractor/FeatureMaps/top_down/smoothing_2_depthwise_conv/separable_conv2d/ReadVariableOp", "shape": [3, 3, 128, 1], "dtype": "float32"}, {"name": "StatefulPartitionedCall/ssd_mobile_net_v2fpn_keras_feature_extractor/FeatureMaps/top_down/projection_3/Conv2D/ReadVariableOp", "shape": [1, 1, 1280, 128], "dtype": "float32"}, {"name": "StatefulPartitionedCall/ssd_mobile_net_v2fpn_keras_feature_extractor/FeatureMaps/top_down/projection_3/BiasAdd/ReadVariableOp", "shape": [128], "dtype": "float32"}, {"name": "StatefulPartitionedCall/ssd_mobile_net_v2fpn_keras_feature_extractor/bottom_up_Conv2d_20_depthwise_conv/separable_conv2d/ReadVariableOp", "shape": [3, 3, 128, 1], "dtype": "float32"}, {"name": "StatefulPartitionedCall/ssd_mobile_net_v2fpn_keras_feature_extractor/bottom_up_Conv2d_21_depthwise_conv/separable_conv2d/ReadVariableOp", "shape": [3, 3, 128, 1], "dtype": "float32"}, {"name": "StatefulPartitionedCall/ssd_mobile_net_v2fpn_keras_feature_extractor/model/Conv1/Conv2D_weights", "shape": [3, 3, 3, 32], "dtype": "float32"}, {"name": "StatefulPartitionedCall/ssd_mobile_net_v2fpn_keras_feature_extractor/model/block_16_expand/Conv2D_weights", "shape": [1, 1, 160, 960], "dtype": "float32"}, {"name": "StatefulPartitionedCall/ssd_mobile_net_v2fpn_keras_feature_extractor/model/Conv1/Conv2D_bn_offset", "shape": [32], "dtype": "float32"}, {"name": "StatefulPartitionedCall/ssd_mobile_net_v2fpn_keras_feature_extractor/model/expanded_conv_depthwise/depthwise_weights", "shape": [3, 3, 32, 1], "dtype": "float32"}, {"name": "StatefulPartitionedCall/ssd_mobile_net_v2fpn_keras_feature_extractor/model/expanded_conv_depthwise/depthwise_bn_offset", "shape": [32], "dtype": "float32"}, {"name": "StatefulPartitionedCall/ssd_mobile_net_v2fpn_keras_feature_extractor/model/expanded_conv_project/Conv2D_weights", "shape": [1, 1, 32, 16], "dtype": "float32"}, {"name": "StatefulPartitionedCall/ssd_mobile_net_v2fpn_keras_feature_extractor/model/block_16_expand/Conv2D_bn_offset", "shape": [960], "dtype": "float32"}, {"name": "StatefulPartitionedCall/ssd_mobile_net_v2fpn_keras_feature_extractor/model/expanded_conv_project/Conv2D_bn_offset", "shape": [16], "dtype": "float32"}, {"name": "StatefulPartitionedCall/ssd_mobile_net_v2fpn_keras_feature_extractor/model/block_1_expand/Conv2D_weights", "shape": [1, 1, 16, 96], "dtype": "float32"}, {"name": "StatefulPartitionedCall/ssd_mobile_net_v2fpn_keras_feature_extractor/model/block_1_expand/Conv2D_bn_offset", "shape": [96], "dtype": "float32"}, {"name": "StatefulPartitionedCall/ssd_mobile_net_v2fpn_keras_feature_extractor/model/block_1_depthwise/depthwise_weights", "shape": [3, 3, 96, 1], "dtype": "float32"}, {"name": "StatefulPartitionedCall/ssd_mobile_net_v2fpn_keras_feature_extractor/model/block_1_depthwise/depthwise_bn_offset", "shape": [96], "dtype": "float32"}, {"name": "StatefulPartitionedCall/ssd_mobile_net_v2fpn_keras_feature_extractor/model/block_1_project/Conv2D_weights", "shape": [1, 1, 96, 24], "dtype": "float32"}, {"name": "StatefulPartitionedCall/ssd_mobile_net_v2fpn_keras_feature_extractor/model/block_16_depthwise/depthwise_weights", "shape": [3, 3, 960, 1], "dtype": "float32"}, {"name": "StatefulPartitionedCall/ssd_mobile_net_v2fpn_keras_feature_extractor/model/block_1_project/Conv2D_bn_offset", "shape": [24], "dtype": "float32"}, {"name": "StatefulPartitionedCall/ssd_mobile_net_v2fpn_keras_feature_extractor/model/block_2_expand/Conv2D_weights", "shape": [1, 1, 24, 144], "dtype": "float32"}, {"name": "StatefulPartitionedCall/ssd_mobile_net_v2fpn_keras_feature_extractor/model/block_2_expand/Conv2D_bn_offset", "shape": [144], "dtype": "float32"}, {"name": "StatefulPartitionedCall/ssd_mobile_net_v2fpn_keras_feature_extractor/model/block_16_depthwise/depthwise_bn_offset", "shape": [960], "dtype": "float32"}, {"name": "StatefulPartitionedCall/ssd_mobile_net_v2fpn_keras_feature_extractor/model/block_2_depthwise/depthwise_weights", "shape": [3, 3, 144, 1], "dtype": "float32"}, {"name": "StatefulPartitionedCall/ssd_mobile_net_v2fpn_keras_feature_extractor/model/block_2_depthwise/depthwise_bn_offset", "shape": [144], "dtype": "float32"}, {"name": "StatefulPartitionedCall/ssd_mobile_net_v2fpn_keras_feature_extractor/model/block_2_project/Conv2D_weights", "shape": [1, 1, 144, 24], "dtype": "float32"}, {"name": "StatefulPartitionedCall/ssd_mobile_net_v2fpn_keras_feature_extractor/model/block_2_project/Conv2D_bn_offset", "shape": [24], "dtype": "float32"}, {"name": "StatefulPartitionedCall/ssd_mobile_net_v2fpn_keras_feature_extractor/model/block_3_expand/Conv2D_weights", "shape": [1, 1, 24, 144], "dtype": "float32"}, {"name": "StatefulPartitionedCall/ssd_mobile_net_v2fpn_keras_feature_extractor/model/block_3_expand/Conv2D_bn_offset", "shape": [144], "dtype": "float32"}, {"name": "StatefulPartitionedCall/ssd_mobile_net_v2fpn_keras_feature_extractor/model/block_16_project/Conv2D_weights", "shape": [1, 1, 960, 320], "dtype": "float32"}, {"name": "StatefulPartitionedCall/ssd_mobile_net_v2fpn_keras_feature_extractor/model/block_3_depthwise/depthwise_weights", "shape": [3, 3, 144, 1], "dtype": "float32"}, {"name": "StatefulPartitionedCall/ssd_mobile_net_v2fpn_keras_feature_extractor/model/block_3_depthwise/depthwise_bn_offset", "shape": [144], "dtype": "float32"}, {"name": "StatefulPartitionedCall/ssd_mobile_net_v2fpn_keras_feature_extractor/model/block_3_project/Conv2D_weights", "shape": [1, 1, 144, 32], "dtype": "float32"}, {"name": "StatefulPartitionedCall/ssd_mobile_net_v2fpn_keras_feature_extractor/model/block_3_project/Conv2D_bn_offset", "shape": [32], "dtype": "float32"}, {"name": "StatefulPartitionedCall/ssd_mobile_net_v2fpn_keras_feature_extractor/model/block_4_expand/Conv2D_weights", "shape": [1, 1, 32, 192], "dtype": "float32"}, {"name": "StatefulPartitionedCall/ssd_mobile_net_v2fpn_keras_feature_extractor/model/block_16_project/Conv2D_bn_offset", "shape": [320], "dtype": "float32"}, {"name": "StatefulPartitionedCall/ssd_mobile_net_v2fpn_keras_feature_extractor/model/block_4_expand/Conv2D_bn_offset", "shape": [192], "dtype": "float32"}, {"name": "StatefulPartitionedCall/ssd_mobile_net_v2fpn_keras_feature_extractor/model/block_4_depthwise/depthwise_weights", "shape": [3, 3, 192, 1], "dtype": "float32"}, {"name": "StatefulPartitionedCall/ssd_mobile_net_v2fpn_keras_feature_extractor/model/block_4_depthwise/depthwise_bn_offset", "shape": [192], "dtype": "float32"}, {"name": "StatefulPartitionedCall/ssd_mobile_net_v2fpn_keras_feature_extractor/model/block_4_project/Conv2D_weights", "shape": [1, 1, 192, 32], "dtype": "float32"}, {"name": "StatefulPartitionedCall/ssd_mobile_net_v2fpn_keras_feature_extractor/model/Conv_1/Conv2D_weights", "shape": [1, 1, 320, 1280], "dtype": "float32"}, {"name": "StatefulPartitionedCall/ssd_mobile_net_v2fpn_keras_feature_extractor/model/block_4_project/Conv2D_bn_offset", "shape": [32], "dtype": "float32"}, {"name": "StatefulPartitionedCall/ssd_mobile_net_v2fpn_keras_feature_extractor/model/block_5_expand/Conv2D_weights", "shape": [1, 1, 32, 192], "dtype": "float32"}, {"name": "StatefulPartitionedCall/ssd_mobile_net_v2fpn_keras_feature_extractor/model/block_5_expand/Conv2D_bn_offset", "shape": [192], "dtype": "float32"}, {"name": "StatefulPartitionedCall/ssd_mobile_net_v2fpn_keras_feature_extractor/model/Conv_1/Conv2D_bn_offset", "shape": [1280], "dtype": "float32"}, {"name": "StatefulPartitionedCall/ssd_mobile_net_v2fpn_keras_feature_extractor/model/block_5_depthwise/depthwise_weights", "shape": [3, 3, 192, 1], "dtype": "float32"}, {"name": "StatefulPartitionedCall/ssd_mobile_net_v2fpn_keras_feature_extractor/model/block_5_depthwise/depthwise_bn_offset", "shape": [192], "dtype": "float32"}, {"name": "StatefulPartitionedCall/ssd_mobile_net_v2fpn_keras_feature_extractor/model/block_5_project/Conv2D_weights", "shape": [1, 1, 192, 32], "dtype": "float32"}, {"name": "StatefulPartitionedCall/ssd_mobile_net_v2fpn_keras_feature_extractor/model/block_5_project/Conv2D_bn_offset", "shape": [32], "dtype": "float32"}, {"name": "StatefulPartitionedCall/ssd_mobile_net_v2fpn_keras_feature_extractor/model/block_6_expand/Conv2D_weights", "shape": [1, 1, 32, 192], "dtype": "float32"}, {"name": "StatefulPartitionedCall/ssd_mobile_net_v2fpn_keras_feature_extractor/model/block_6_expand/Conv2D_bn_offset", "shape": [192], "dtype": "float32"}, {"name": "StatefulPartitionedCall/ssd_mobile_net_v2fpn_keras_feature_extractor/model/block_6_depthwise/depthwise_weights", "shape": [3, 3, 192, 1], "dtype": "float32"}, {"name": "StatefulPartitionedCall/ssd_mobile_net_v2fpn_keras_feature_extractor/model/block_6_depthwise/depthwise_bn_offset", "shape": [192], "dtype": "float32"}, {"name": "StatefulPartitionedCall/ssd_mobile_net_v2fpn_keras_feature_extractor/model/block_6_project/Conv2D_weights", "shape": [1, 1, 192, 64], "dtype": "float32"}, {"name": "StatefulPartitionedCall/ssd_mobile_net_v2fpn_keras_feature_extractor/model/block_6_project/Conv2D_bn_offset", "shape": [64], "dtype": "float32"}, {"name": "StatefulPartitionedCall/ssd_mobile_net_v2fpn_keras_feature_extractor/model/block_7_expand/Conv2D_weights", "shape": [1, 1, 64, 384], "dtype": "float32"}, {"name": "StatefulPartitionedCall/ssd_mobile_net_v2fpn_keras_feature_extractor/model/block_7_expand/Conv2D_bn_offset", "shape": [384], "dtype": "float32"}, {"name": "StatefulPartitionedCall/ssd_mobile_net_v2fpn_keras_feature_extractor/model/block_7_depthwise/depthwise_weights", "shape": [3, 3, 384, 1], "dtype": "float32"}, {"name": "StatefulPartitionedCall/ssd_mobile_net_v2fpn_keras_feature_extractor/model/block_7_depthwise/depthwise_bn_offset", "shape": [384], "dtype": "float32"}, {"name": "StatefulPartitionedCall/ssd_mobile_net_v2fpn_keras_feature_extractor/model/block_7_project/Conv2D_weights", "shape": [1, 1, 384, 64], "dtype": "float32"}, {"name": "StatefulPartitionedCall/ssd_mobile_net_v2fpn_keras_feature_extractor/model/block_7_project/Conv2D_bn_offset", "shape": [64], "dtype": "float32"}, {"name": "StatefulPartitionedCall/ssd_mobile_net_v2fpn_keras_feature_extractor/model/block_8_expand/Conv2D_weights", "shape": [1, 1, 64, 384], "dtype": "float32"}, {"name": "StatefulPartitionedCall/ssd_mobile_net_v2fpn_keras_feature_extractor/model/block_8_expand/Conv2D_bn_offset", "shape": [384], "dtype": "float32"}, {"name": "StatefulPartitionedCall/ssd_mobile_net_v2fpn_keras_feature_extractor/model/block_8_depthwise/depthwise_weights", "shape": [3, 3, 384, 1], "dtype": "float32"}, {"name": "StatefulPartitionedCall/ssd_mobile_net_v2fpn_keras_feature_extractor/model/block_8_depthwise/depthwise_bn_offset", "shape": [384], "dtype": "float32"}, {"name": "StatefulPartitionedCall/ssd_mobile_net_v2fpn_keras_feature_extractor/model/block_8_project/Conv2D_weights", "shape": [1, 1, 384, 64], "dtype": "float32"}, {"name": "StatefulPartitionedCall/ssd_mobile_net_v2fpn_keras_feature_extractor/model/block_8_project/Conv2D_bn_offset", "shape": [64], "dtype": "float32"}, {"name": "StatefulPartitionedCall/ssd_mobile_net_v2fpn_keras_feature_extractor/model/block_9_expand/Conv2D_weights", "shape": [1, 1, 64, 384], "dtype": "float32"}, {"name": "StatefulPartitionedCall/ssd_mobile_net_v2fpn_keras_feature_extractor/model/block_9_expand/Conv2D_bn_offset", "shape": [384], "dtype": "float32"}, {"name": "StatefulPartitionedCall/ssd_mobile_net_v2fpn_keras_feature_extractor/model/block_9_depthwise/depthwise_weights", "shape": [3, 3, 384, 1], "dtype": "float32"}, {"name": "StatefulPartitionedCall/ssd_mobile_net_v2fpn_keras_feature_extractor/model/block_9_depthwise/depthwise_bn_offset", "shape": [384], "dtype": "float32"}, {"name": "StatefulPartitionedCall/ssd_mobile_net_v2fpn_keras_feature_extractor/model/block_9_project/Conv2D_weights", "shape": [1, 1, 384, 64], "dtype": "float32"}, {"name": "StatefulPartitionedCall/ssd_mobile_net_v2fpn_keras_feature_extractor/model/block_9_project/Conv2D_bn_offset", "shape": [64], "dtype": "float32"}, {"name": "StatefulPartitionedCall/ssd_mobile_net_v2fpn_keras_feature_extractor/model/block_10_expand/Conv2D_weights", "shape": [1, 1, 64, 384], "dtype": "float32"}, {"name": "StatefulPartitionedCall/ssd_mobile_net_v2fpn_keras_feature_extractor/bottom_up_Conv2d_20_depthwise_conv/separable_conv2d_weights", "shape": [1, 1, 128, 128], "dtype": "float32"}, {"name": "StatefulPartitionedCall/ssd_mobile_net_v2fpn_keras_feature_extractor/model/block_10_expand/Conv2D_bn_offset", "shape": [384], "dtype": "float32"}, {"name": "StatefulPartitionedCall/ssd_mobile_net_v2fpn_keras_feature_extractor/model/block_10_depthwise/depthwise_weights", "shape": [3, 3, 384, 1], "dtype": "float32"}, {"name": "StatefulPartitionedCall/ssd_mobile_net_v2fpn_keras_feature_extractor/model/block_10_depthwise/depthwise_bn_offset", "shape": [384], "dtype": "float32"}, {"name": "StatefulPartitionedCall/ssd_mobile_net_v2fpn_keras_feature_extractor/model/block_10_project/Conv2D_weights", "shape": [1, 1, 384, 96], "dtype": "float32"}, {"name": "StatefulPartitionedCall/ssd_mobile_net_v2fpn_keras_feature_extractor/bottom_up_Conv2d_20_depthwise_conv/separable_conv2d_bn_offset", "shape": [128], "dtype": "float32"}, {"name": "StatefulPartitionedCall/ssd_mobile_net_v2fpn_keras_feature_extractor/model/block_10_project/Conv2D_bn_offset", "shape": [96], "dtype": "float32"}, {"name": "StatefulPartitionedCall/ssd_mobile_net_v2fpn_keras_feature_extractor/model/block_11_expand/Conv2D_weights", "shape": [1, 1, 96, 576], "dtype": "float32"}, {"name": "StatefulPartitionedCall/ssd_mobile_net_v2fpn_keras_feature_extractor/model/block_11_expand/Conv2D_bn_offset", "shape": [576], "dtype": "float32"}, {"name": "StatefulPartitionedCall/ssd_mobile_net_v2fpn_keras_feature_extractor/model/block_11_depthwise/depthwise_weights", "shape": [3, 3, 576, 1], "dtype": "float32"}, {"name": "StatefulPartitionedCall/ssd_mobile_net_v2fpn_keras_feature_extractor/model/block_11_depthwise/depthwise_bn_offset", "shape": [576], "dtype": "float32"}, {"name": "StatefulPartitionedCall/ssd_mobile_net_v2fpn_keras_feature_extractor/model/block_11_project/Conv2D_weights", "shape": [1, 1, 576, 96], "dtype": "float32"}, {"name": "StatefulPartitionedCall/ssd_mobile_net_v2fpn_keras_feature_extractor/model/block_11_project/Conv2D_bn_offset", "shape": [96], "dtype": "float32"}, {"name": "StatefulPartitionedCall/ssd_mobile_net_v2fpn_keras_feature_extractor/model/block_12_expand/Conv2D_weights", "shape": [1, 1, 96, 576], "dtype": "float32"}, {"name": "StatefulPartitionedCall/ssd_mobile_net_v2fpn_keras_feature_extractor/model/block_12_expand/Conv2D_bn_offset", "shape": [576], "dtype": "float32"}, {"name": "StatefulPartitionedCall/ssd_mobile_net_v2fpn_keras_feature_extractor/bottom_up_Conv2d_21_depthwise_conv/separable_conv2d_weights", "shape": [1, 1, 128, 128], "dtype": "float32"}, {"name": "StatefulPartitionedCall/ssd_mobile_net_v2fpn_keras_feature_extractor/model/block_12_depthwise/depthwise_weights", "shape": [3, 3, 576, 1], "dtype": "float32"}, {"name": "StatefulPartitionedCall/ssd_mobile_net_v2fpn_keras_feature_extractor/model/block_12_depthwise/depthwise_bn_offset", "shape": [576], "dtype": "float32"}, {"name": "StatefulPartitionedCall/ssd_mobile_net_v2fpn_keras_feature_extractor/model/block_12_project/Conv2D_weights", "shape": [1, 1, 576, 96], "dtype": "float32"}, {"name": "StatefulPartitionedCall/ssd_mobile_net_v2fpn_keras_feature_extractor/FeatureMaps/top_down/smoothing_1_depthwise_conv/separable_conv2d_weights", "shape": [1, 1, 128, 128], "dtype": "float32"}, {"name": "StatefulPartitionedCall/ssd_mobile_net_v2fpn_keras_feature_extractor/model/block_12_project/Conv2D_bn_offset", "shape": [96], "dtype": "float32"}, {"name": "StatefulPartitionedCall/ssd_mobile_net_v2fpn_keras_feature_extractor/bottom_up_Conv2d_21_depthwise_conv/separable_conv2d_bn_offset", "shape": [128], "dtype": "float32"}, {"name": "StatefulPartitionedCall/ssd_mobile_net_v2fpn_keras_feature_extractor/model/block_13_expand/Conv2D_weights", "shape": [1, 1, 96, 576], "dtype": "float32"}, {"name": "StatefulPartitionedCall/ssd_mobile_net_v2fpn_keras_feature_extractor/model/block_13_expand/Conv2D_bn_offset", "shape": [576], "dtype": "float32"}, {"name": "StatefulPartitionedCall/ssd_mobile_net_v2fpn_keras_feature_extractor/model/block_13_depthwise/depthwise_weights", "shape": [3, 3, 576, 1], "dtype": "float32"}, {"name": "StatefulPartitionedCall/ssd_mobile_net_v2fpn_keras_feature_extractor/model/block_13_depthwise/depthwise_bn_offset", "shape": [576], "dtype": "float32"}, {"name": "StatefulPartitionedCall/ssd_mobile_net_v2fpn_keras_feature_extractor/model/block_13_project/Conv2D_weights", "shape": [1, 1, 576, 160], "dtype": "float32"}, {"name": "StatefulPartitionedCall/ssd_mobile_net_v2fpn_keras_feature_extractor/model/block_13_project/Conv2D_bn_offset", "shape": [160], "dtype": "float32"}, {"name": "StatefulPartitionedCall/ssd_mobile_net_v2fpn_keras_feature_extractor/model/block_14_expand/Conv2D_weights", "shape": [1, 1, 160, 960], "dtype": "float32"}, {"name": "StatefulPartitionedCall/ssd_mobile_net_v2fpn_keras_feature_extractor/FeatureMaps/top_down/smoothing_2_depthwise_conv/separable_conv2d_weights", "shape": [1, 1, 128, 128], "dtype": "float32"}, {"name": "StatefulPartitionedCall/ssd_mobile_net_v2fpn_keras_feature_extractor/model/block_14_expand/Conv2D_bn_offset", "shape": [960], "dtype": "float32"}, {"name": "StatefulPartitionedCall/ssd_mobile_net_v2fpn_keras_feature_extractor/FeatureMaps/top_down/smoothing_1_depthwise_conv/separable_conv2d_bn_offset", "shape": [128], "dtype": "float32"}, {"name": "StatefulPartitionedCall/ssd_mobile_net_v2fpn_keras_feature_extractor/model/block_14_depthwise/depthwise_weights", "shape": [3, 3, 960, 1], "dtype": "float32"}, {"name": "StatefulPartitionedCall/ssd_mobile_net_v2fpn_keras_feature_extractor/model/block_14_depthwise/depthwise_bn_offset", "shape": [960], "dtype": "float32"}, {"name": "StatefulPartitionedCall/ssd_mobile_net_v2fpn_keras_feature_extractor/model/block_14_project/Conv2D_weights", "shape": [1, 1, 960, 160], "dtype": "float32"}, {"name": "StatefulPartitionedCall/ssd_mobile_net_v2fpn_keras_feature_extractor/FeatureMaps/top_down/smoothing_2_depthwise_conv/separable_conv2d_bn_offset", "shape": [128], "dtype": "float32"}, {"name": "StatefulPartitionedCall/ssd_mobile_net_v2fpn_keras_feature_extractor/model/block_14_project/Conv2D_bn_offset", "shape": [160], "dtype": "float32"}, {"name": "StatefulPartitionedCall/ssd_mobile_net_v2fpn_keras_feature_extractor/model/block_15_expand/Conv2D_weights", "shape": [1, 1, 160, 960], "dtype": "float32"}, {"name": "StatefulPartitionedCall/ssd_mobile_net_v2fpn_keras_feature_extractor/model/block_15_expand/Conv2D_bn_offset", "shape": [960], "dtype": "float32"}, {"name": "StatefulPartitionedCall/ssd_mobile_net_v2fpn_keras_feature_extractor/model/block_15_depthwise/depthwise_weights", "shape": [3, 3, 960, 1], "dtype": "float32"}, {"name": "StatefulPartitionedCall/ssd_mobile_net_v2fpn_keras_feature_extractor/model/block_15_depthwise/depthwise_bn_offset", "shape": [960], "dtype": "float32"}, {"name": "StatefulPartitionedCall/ssd_mobile_net_v2fpn_keras_feature_extractor/model/block_15_project/Conv2D_weights", "shape": [1, 1, 960, 160], "dtype": "float32"}, {"name": "StatefulPartitionedCall/ssd_mobile_net_v2fpn_keras_feature_extractor/model/block_15_project/Conv2D_bn_offset", "shape": [160], "dtype": "float32"}]}]}